checkpoint_1_actor.pth (torch_old, 48187 bytes, 10 tensors)

bn1.weight f4 [24]
00000000: 7a44 0f3f ae20 0f3f b84d bb3d 140b 573e
00000010: 80c0 eb3b 8096 1f3d 572e 7e3f c8c1 693f
00000020: 325b 1e3f 8971 793f 7448 a33e f0fb 5b3e
00000030: 671f 6d3f da70 f23e 5e4e 183f 37ab 4b3f
00000040: b773 433f e4d4 5a3e d0fe 9c3e 40ea 1d3d
00000050: b2a3 053f 5838 a43e 267d 1b3f 7ef4 053f
0.5596386 0.5590924 0.09145683 0.2100032 0.0071945786 0.038961887 0.9928946 0.9131131
0.61857903 0.97438866 0.31891215 0.21482825 0.9262604 0.47351724 0.5949458 0.7955813
0.7634844 0.21370274 0.30663157 0.038553476 0.52202904 0.32074237 0.60737836 0.5232619

bn1.bias f4 [24]
00000000: 0000 0000 0000 0000 0000 0000 0000 0000
00000010: 0000 0000 0000 0000 0000 0000 0000 0000
00000020: 0000 0000 0000 0000 0000 0000 0000 0000
00000030: 0000 0000 0000 0000 0000 0000 0000 0000
00000040: 0000 0000 0000 0000 0000 0000 0000 0000
00000050: 0000 0000 0000 0000 0000 0000 0000 0000
0.0 0.0 0.0 0.0 0.0 0.0 0.0 0.0
0.0 0.0 0.0 0.0 0.0 0.0 0.0 0.0
0.0 0.0 0.0 0.0 0.0 0.0 0.0 0.0

bn1.running_mean f4 [24]
00000000: 0000 0000 0000 0000 0000 0000 0000 0000
00000010: 0000 0000 0000 0000 0000 0000 0000 0000
00000020: 0000 0000 0000 0000 0000 0000 0000 0000
00000030: 0000 0000 0000 0000 0000 0000 0000 0000
00000040: 0000 0000 0000 0000 0000 0000 0000 0000
00000050: 0000 0000 0000 0000 0000 0000 0000 0000
0.0 0.0 0.0 0.0 0.0 0.0 0.0 0.0
0.0 0.0 0.0 0.0 0.0 0.0 0.0 0.0
0.0 0.0 0.0 0.0 0.0 0.0 0.0 0.0

bn1.running_var f4 [24]
00000000: 0000 803f 0000 803f 0000 803f 0000 803f
00000010: 0000 803f 0000 803f 0000 803f 0000 803f
00000020: 0000 803f 0000 803f 0000 803f 0000 803f
00000030: 0000 803f 0000 803f 0000 803f 0000 803f
00000040: 0000 803f 0000 803f 0000 803f 0000 803f
00000050: 0000 803f 0000 803f 0000 803f 0000 803f
1.0 1.0 1.0 1.0 1.0 1.0 1.0 1.0
1.0 1.0 1.0 1.0 1.0 1.0 1.0 1.0
1.0 1.0 1.0 1.0 1.0 1.0 1.0 1.0

fc1.weight f4 [128, 24]
00000000: e4c2 debd d7d3 ef3e 9d0f 8dbd a73f fdbd
00000010: b3c0 453e cafb 39bd 59cd 403d 4577 013c
00000020: 852e f8bd 2b4e 0c3f 37f4 f13d 6dba 79bd
00000030: 1912 80bd d068 9abd 816f 393c 6c24 5ebe
00000040: 84ad 03be d280 213f a8d5 013d 392f 82be
00000050: 7f27 4ebe 40be 6abe fc22 c43c 3492 c0be
00000060: 7306 debd 55ed 32bd 9ffe 123c 2207 0d3e
00000070: 7fb2 e2bc cc05 2d3e a0aa c03d b47a 3e3d
00000080: a101 17bd e339 d1bd 96a1 ac3b 0ebf 2ebd
00000090: 5b6c acbd fac7 e83c 637d 263d 719d a63d
000000a0: 0b66 ff3c be16 f93b 9e73 be3c e979 c4bc
000000b0: 9fcb 13be 4af0 8a3d 44cb 7d3d c5d8 ab3c
000000c0: b345 1dbe bc6b 23be d0d3 cf3d dd5a 80be
000000d0: 08d8 043e 5826 493d 2ffd 66bc b0b1 83be
000000e0: e587 6abe b9ce 89be fbb0 9ebb bbef 68be
000000f0: eb2e 683e cabf a43d 6ccf d9bd f929 03be
00000100: af9f 03be 2290 92be 1f49 743d a5af 243b
00000110: 469b 713e 954f 123d 5ea5 da3b a95b febc
00000120: 824f a1bd 979d b33d 7fa6 11bc 8ea6 573d
00000130: d526 35be e283 afbd 3081 09bd 60ad 5e3d
00000140: f4a9 19ba 47b4 463e 133c 71be c2fc 53bd
00000150: 2501 0bbe 71a9 1bbe 1b6b 61be 3262 493d
00000160: ff1a 45bd 13dc f73c 0ef8 c83d 6d6d 183e
00000170: ea89 003e e73a c9bd ba93 dd3d 095d 653e
00000180: d350 d83b 916a 42bc ef2e 283d 21df 1e3c
00000190: d79c 3b3e 770b 0e3e 4573 06bc f99f 2b3d
000001a0: 4eee a13c 9f84 c53d 224b c43d d2a9 203e
000001b0: 0fd5 4e3d f352 34bd 0f47 c5bc f4ff fc3d
000001c0: 9817 123e 40e0 923e f9c5 933d 8f67 f33e
000001d0: 4a13 153e 5abd 0c3d 1b4d 1d3e 2355 d53e
000001e0: 0ec6 f43d 58b4 fa3e 9546 f9bd 7e51 8c3e
000001f0: 03bb 743c 8831 3c3e 6494 82be d8cc 823e
00000200: 9380 3fbd aa5f b93d 4b52 8d3c 2159 02be
00000210: 0fc8 8c3b c8be fabd 2179 d73d 18c6 3bbe
00000220: b673 073b 89ac 983c 2a75 ebbd a8b3 14be
00000230: 6078 0cbd 699a 39be 70de f6bd e09e 3cbe
00000240: 5358 843d f355 c7bd 315f 263d 7c65 c2bd
00000250: d941 923c b91e 47bd c708 003e 6ff4 1dbe
00000260: 5c05 ef3d 44f8 933c 21df b1bd a0e8 d4bc
00000270: bd2a 30be bea9 07bd 1513 aebd ca24 1b3a
00000280: 398c 213e d8b7 db3d 8ed1 643d 4e84 443e
00000290: 3cb0 05be 7c20 f5bd cd69 033e 76b0 753e
000002a0: a4fa babe 97ca d6be 0094 8b3d 462a 8bbc
000002b0: ba47 9f3e c6d2 56be 064b 3a3d 8516 683d
000002c0: 8f1c 49bd 811a 40be 7f48 803d c8b2 863e
000002d0: 8a2b f63e e3f7 09bf c79a 903d 5b89 0a3e
000002e0: 06c4 4abd a2f4 8fbe 8a5e 903b 0c51 173e
000002f0: 50c2 f93e df64 3dbf 93ed b1bd ec7f 343e
00000300: acdb 18be ef34 8dbc e313 1d3d 79b9 84be
00000310: 1977 bcbc 0f53 d2bc de92 3d3c fc35 77be
00000320: 49a5 6f3c 7063 6a3d b5df 8dbe 8968 05be
00000330: a48f 43bd 6dd9 17be c8e5 00be 7184 f0bd
00000340: 5a23 d2bd b3b2 f0bd 2108 28bb fe30 a9bd
00000350: a8fd 02be 56d6 67bd f036 78bd b129 78bd
00000360: 2780 033f 6ba9 dd3e 3b54 703d 6dbe 54bc
00000370: 9058 8f3e f9b8 a53d 7a0b 273e 4e9b 1abe
00000380: fbec 343e 4639 a83e 1c25 1db9 ba60 543e
00000390: ab15 9d3d 9012 643e d8e0 8a3d 04df 833d
000003a0: 27bd 203e 9838 983e 2c38 14be 3e63 bd3d
000003b0: 716f a73c 7842 9c3c f81b 37be 2e53 083e
000003c0: 6917 e9bb 97a9 32bd feae d13d cf16 1d3e
000003d0: d5a2 debd 8ae6 183d 20c0 813d 9628 c53d
000003e0: a123 dabc a523 c23d 4d52 373e 851e 5d3e
000003f0: f07c 36bd 55a7 b4bc c5c3 e23d a918 003e
-0.10877016 0.46841308 -0.068877436 -0.12365656 0.1931179 -0.04540614 0.047070835 0.007901971
-0.12118248 0.54806775 0.118141584 -0.060968805 -0.06253452 -0.07539523 0.0113180885 -0.21693581
-0.1285916 0.6308719 0.0316979 -0.25426653 -0.20132254 -0.22924137 0.023942463 -0.37611544
-0.10841074 -0.04368337 0.008971839 0.13772252 -0.027673004 0.16896743 0.09407544 0.046503738
-0.036866788 -0.10216119 0.005268286 -0.042662673 -0.08419105 0.028415669 0.04064692 0.08135498
0.031176588 0.007601588 0.02324849 -0.023983913 -0.14433144 0.06784113 0.061961427 0.020977387
-0.1535862 -0.15959066 0.10147822 -0.25069323 0.12973034 0.049108833 -0.01409845 -0.25721502
-0.22903402 -0.2691553 -0.004842875 -0.227477 0.22674148 0.08044393 -0.10635266 -0.1280898
-0.12853883 -0.2862559 0.059640046 0.0025129106 0.23594388 0.035720427 0.0066725453 -0.031049566
-0.07876493 0.08770292 -0.008889793 0.052649073 -0.17690594 -0.085700765 -0.03357047 0.054364562
-0.0005861812 0.19404708 -0.23558073 -0.05175472 -0.13574655 -0.15201356 -0.22013514 0.049165912
-0.04812145 0.030256307 0.09812938 0.14885493 0.1255261 -0.09825688 0.10819192 0.22398771
0.006601432 -0.011866228 0.041060384 0.009696753 0.18321548 0.13871561 -0.008206193 0.04190061
0.019766953 0.09644436 0.09584643 0.15689781 0.050496157 -0.04402442 -0.024081735 0.12353507
0.14266813 0.28686714 0.07215495 0.47539946 0.1455814 0.034360267 0.15361445 0.41666517
0.119518384 0.48965716 -0.121716656 0.27405924 0.014937165 0.1837827 -0.25503838 0.25546908
-0.046753477 0.090514496 0.017251154 -0.12729312 0.00429631 -0.1224342 0.105211504 -0.18337286
0.0020668334 0.018636959 -0.11496957 -0.14521658 -0.034294486 -0.18125309 -0.12054145 -0.18419981
0.06462159 -0.097331904 0.040618125 -0.09492013 0.017853664 -0.048613284 0.12503348 -0.15425275
0.11670944 0.018062718 -0.086851366 -0.02598983 -0.17203803 -0.033120863 -0.08499733 0.0005918263
0.15776147 0.10728425 0.05586391 0.19191095 -0.1305551 -0.119690865 0.12833329 0.23993096
-0.3651935 -0.4195144 0.06815338 -0.016987931 0.3110941 -0.20978841 0.045481704 0.0566621
-0.0490995 -0.1876011 0.062638275 0.26308274 0.48080093 -0.5389387 0.070607714 0.1352896
-0.04950335 -0.28116328 0.004405801 0.1477701 0.4878106 -0.7398204 -0.08687892 0.17626923
-0.14927548 -0.017237155 0.038349044 -0.25922754 -0.023006009 -0.025674371 0.01157066 -0.24141687
0.014626809 0.057223737 -0.27709737 -0.13028158 -0.04774441 -0.14829035 -0.12587655 -0.11744011
-0.10260649 -0.11752834 -0.002563961 -0.08261298 -0.12792075 -0.05660089 -0.060599267 -0.060586635
0.5136742 0.43293318 0.05867408 -0.012984854 0.27997255 0.08091921 0.16312972 -0.15098307
0.17668526 0.32856196 -0.00014986511 0.20740023 0.076701485 0.22272706 0.06781167 0.06439021
0.15697156 0.29730678 -0.14474553 0.092474446 0.020438882 0.019074664 -0.17881763 0.1331298
-0.0071133864 -0.043618765 0.10238455 0.15340732 -0.108709015 0.037329234 0.06335473 0.09626882
-0.026628317 0.09479455 0.17902489 0.21593674 -0.044552743 -0.022052446 0.11072496 0.12509407

fc1.bias f4 [128]
00000000: aebe 8cbd 10e5 1c3e 1358 e7bd 0638 d0bd
00000010: 7c6b 313d 4e34 79be f567 a73d 985d 73bd
00000020: a6a9 d2bd 293d fa3d acc3 3f3e 34b2 17be
00000030: 12eb 08bd fb07 75bd 7174 d03d d439 643d
00000040: 9d5e ae3d ae5a 493e 415a 14be a0f3 9ebd
00000050: 104d 61bd 79e3 83bd 7bbf d1bd cc33 823d
00000060: 4db8 5b3c 7fd2 d9bd 7a2e d93d b9a0 0c3e
00000070: 5408 c6bd 142b 893c 83f1 82be 333c c93d
00000080: 70de debd 3698 16be 05e7 a3bd 316e 3f3e
00000090: e355 943c 952f 2f3e 3a87 783e 1306 023e
000000a0: 5723 773d 0776 cabd ad8f 18be 5c6d a3bd
000000b0: 3d79 29bd 5e70 39be 4f6c 5fbd c206 c53d
000000c0: 0468 bb3d 5458 8c3d a666 593d 429f 29be
000000d0: 7353 463e ca14 4d3d 2bf2 8cbb 9f0e 49be
000000e0: efb7 0fbe 71b0 023e c049 ca3d 6889 ae3e
000000f0: 0ca5 38be b550 8e3d b141 12bd 37cf debd
00000100: a7f3 e5bd 41e9 ab3d f152 5e3e 2fd9 9abc
00000110: a07f 873c 8d99 cc3c 5bc3 393e 1131 39bd
00000120: bc92 f7bd c08b bd3a ea2e 70be 5b77 d33d
00000130: fb32 1f3e 6f6e 4f3d ff62 0abe c809 60be
00000140: c846 b73a c09e 143d 52eb d23c 4ad8 923d
00000150: 9ba5 27bc c7bf b53d 9a7e d6bd 820d 1a3d
00000160: 655a 76be c2ef fdbd 0e1d 77bc 4550 f4bd
00000170: 2a54 80be a976 08bd 854a 3b3e e892 7abe
00000180: d57a d8bc ec3f 423d cb34 ce3d bdcd 60bd
00000190: eba0 33bd 776f a1bd 361d 473e 81e3 913d
000001a0: 5c19 1dbe 01a3 3fbd 1888 b7bc 409e 6bbe
000001b0: 4186 413d e89f c2bd 3841 49be faf0 92bc
000001c0: 5f06 0f3e 1e11 45be e31a c13d a7b4 99bd
000001d0: 2c9e 6abe 63b9 733d 5061 983d a0ea 2f3e
000001e0: 8e81 b73d 267e 74be f15f d4bd a2e9 c73d
000001f0: 6e6f e4bd 35fd faba 18b1 1c3d 74d7 fcbc
-0.06872307 0.15321755 -0.11296096 -0.101669356 0.043315396 -0.24336359 0.08174125 -0.05941543
-0.10286264 0.122186966 0.18726987 -0.14814073 -0.033427306 -0.059822064 0.101784594 0.05571921
0.0851414 0.19663498 -0.14487554 -0.077613115 -0.055005133 -0.06439871 -0.102416 0.06357536
0.01341064 -0.10635852 0.10604568 0.13733186 -0.09669557 0.016744174 -0.25574884 0.09825935
-0.1088227 -0.14706501 -0.08003048 0.18694378 0.01810736 0.17107995 0.24270335 0.1269763
0.060336437 -0.09885793 -0.14898558 -0.07979843 -0.041375387 -0.18109271 -0.05454665 0.096204296
0.09150699 0.06852785 0.05307641 -0.16564658 0.19367771 0.050068654 -0.0043013296 -0.19634484
-0.14035009 0.1276262 0.09877348 0.34089208 -0.1803171 0.069489874 -0.03570718 -0.10879367
-0.112281136 0.08394099 0.21711327 -0.01890239 0.016540349 0.024975562 0.18140928 -0.04521281
-0.12088534 0.0014461204 -0.23455396 0.103254996 0.15546791 0.050642427 -0.13514327 -0.21878731
0.0013982886 0.03628421 0.025746975 0.0717016 -0.0102323545 0.08874469 -0.10473366 0.03761054
-0.2405792 -0.12399246 -0.015082611 -0.11929373 -0.25064212 -0.03331629 0.18290146 -0.24470103
-0.026425758 0.047424242 0.10068663 -0.054883707 -0.043854635 -0.07882588 0.19444737 0.07123471
-0.15341705 -0.046786312 -0.022403762 -0.23009586 0.047247175 -0.09503156 -0.19653785 -0.017937172
0.13967274 -0.19244811 0.09428956 -0.0750516 -0.229119 0.05950297 0.07440436 0.17179346
0.089602575 -0.23876247 -0.10369862 0.09761359 -0.11154066 -0.0019148948 0.038254827 -0.030864455

fc2.weight f4 [64, 128]
00000000: c7b6 4fbe 5827 e73d 0c1d 74bd e58d b5bd
00000010: e0db 73bd bd9a c53d db61 b6bd a7f6 1f3e
00000020: 015e 81bd e6e8 ed3d 1e36 fcbd 6853 b33d
00000030: 32f3 a33e e0d8 67be abda 31be cb19 033e
00000040: 88bd 523e 3cc9 333b b4aa ed3c 191d 063e
00000050: d574 613e 7f81 bcbd a0fe 723e 08a2 1e3d
00000060: 86ac 823c 0861 d53d e7f8 683c ba49 ab3d
00000070: 7256 63be f3ca ea3d f56e e5be c034 6ebe
00000080: 8230 b13e 6218 14bc dee7 02bd 1fb0 63be
00000090: aed3 9d3d dc97 2c3e df6a 0abe 6111 553e
000000a0: 58e0 3a3d 6447 3fbd 3bdd 6ebe 01b1 b23d
000000b0: f6c6 353e e943 323e 1d09 2cbe 5bd8 6e3d
000000c0: e23e 2bbe f53e 1bbe b5d2 de3e d03e c8be
000000d0: f3dc 8a3d 1f4e 6c3d a9bb d2bd f3a7 c93d
000000e0: 232d 9abe 921c 213e d19b 5c3d e1e3 92bc
000000f0: 44c7 f2bd 1891 7c3d 7aa3 0bbd f606 873e
00000100: 3b70 a63d 3230 1a3c 8c1a f63d 55be 0abe
00000110: c96f ce3d 3752 933c df0a 2c3e f216 703e
00000120: 71dd fe3c ed23 0a3e 9c7c 963d 07e5 c4be
00000130: dfac 923e 1d25 1ebe a7f1 08be a703 d43d
00000140: 0010 973e e73d 2dba bb10 bd3d e2e5 3b3e
00000150: 981d dabe a81e 1a3e cf73 9e3d 6073 8bbd
00000160: 9e66 a53d 92d7 97bd 216b 27be ecc0 3bbe
00000170: 5f01 453d a22b 843d 74a3 7fbd 335e 723b
00000180: 0c58 afbe 8339 a8bd 1600 a53d 7f78 4d3e
00000190: b8d6 b13e f43d 193e 3dc2 823d 7756 37bd
000001a0: cd1c 28bd b9e3 553e cd28 0f3e 7274 6b3d
000001b0: bde7 613d 4a9a 8c3d 469c 3cbe b817 85bd
000001c0: 8bfe b8bd 8d86 42bd 10ff 8a3d 8f02 41bd
000001d0: d703 663d b896 243d 6fa9 09be 1af1 113e
000001e0: 8a5f 043e 1d21 383e 229c 3a3d b3a5 b3be
000001f0: dcd2 b9bd 0ce1 983d 4f48 083e 335b 643d
00000200: 0ecc dabd d88a 1bbe bd1b 45be 7ee5 023e
00000210: fb86 56bd 673e 983d d0a3 5d3d c7ef 0ebe
00000220: e78f 473e 286f 3ebe 5d41 5e3b c832 bb38
00000230: 5db7 66be e6f1 9dbe 38cf d7bc 2dc8 c63d
00000240: e1a2 c33c 200f 6d39 1975 293d 7673 85bd
00000250: e2c1 d63d 2a9c 453d 78e4 01be b805 073d
00000260: af48 903d 7de3 eb3d ea7e d9bd a7d8 87be
00000270: 05d7 ef3d dd99 213d deb1 a0bb 96a5 9a3d
00000280: 1c42 63be 5fe0 abbe a170 f7bd 79cc 683e
00000290: f577 b23d 48d1 65bd 8a66 a13d 147f 1ebd
000002a0: 35e4 473d e089 b0be d969 553e 6719 22be
000002b0: bd6f d1be dfda db3e 6ced 773e cdd8 113c
000002c0: 75b8 5bbc de84 ccbd 1cc8 fabe e07f 7ebd
000002d0: 7c98 b93d 4864 64bd 85c0 5c3e 2c53 84bd
000002e0: dab5 b43d d3af 90bd fd85 37bd 195f 73bd
000002f0: 03a9 81bd edfd d73d 6d5c 4a3d 1dcd f2ba
00000300: 1b0d 523d 3cd1 233e 5c70 a23c c112 ee3d
00000310: df6f d53d 04b6 babd 9394 2fbe 59c9 a33d
00000320: 8f31 413d ee6f 9f3d 9fa0 843e 7fde 983d
00000330: e4c4 0fbe 367a 77be dbbd 4dbd 0dd5 a33d
00000340: d748 d1be 11f0 b9bb 0096 60be 9c66 5ebd
00000350: 3f92 08be 4f1c 4a3e e7f9 7fbb 2a77 ac3d
00000360: 9a74 203e ee36 033d 31fa 90bd 7e71 9ebc
00000370: 50bb ad3e 7a11 763d c6e8 453e db83 2b3c
00000380: a834 a8bb 72d3 473d c398 a93d 4718 7dbd
00000390: a735 a83e 83a7 263e bf51 10be ecf8 ac3e
000003a0: de7c 1fbd ffc0 7e3c e05d 0abd 02b7 e4bb
000003b0: 64c0 b2bc a93f 203e d534 fe3d f8f8 27bd
000003c0: 5c9b a23d aeac efbd f038 bfbc b293 8f3c
000003d0: ed52 9ebd 361d 06be 0d22 ecbc 680c 5bbd
000003e0: 2249 0c3d ca3b 973e 3144 e93d a8bc 9abd
000003f0: 3114 6cbd 51be 013e 8cfe 08bf 893a 71bd
-0.20284568 0.11286801 -0.059598014 -0.08864955 -0.05953586 0.096486546 -0.08905383 0.15621434
-0.06316758 0.116166875 -0.123150095 0.08756143 0.3202148 -0.22641325 -0.17368571 0.12802808
0.20580113 0.0027433177 0.029012062 0.13097037 0.22017224 -0.09204387 0.23729944 0.038728744
0.015951406 0.10418898 0.014219499 0.083636716 -0.22200945 0.11464491 -0.44811216 -0.2326231
0.3460732 -0.009039016 -0.031959407 -0.22235154 0.0770639 0.16854805 -0.1351733 0.20807411
0.045624107 -0.046698943 -0.2332658 0.08725167 0.17751679 0.17408718 -0.16800351 0.0583118
-0.16723207 -0.15160735 0.43520132 -0.39110422 0.06780424 0.05769169 -0.102896996 0.09846487
-0.30112562 0.15733555 0.053859536 -0.017930927 -0.11854413 0.06166181 -0.03409145 0.26372498
0.08126875 0.009410905 0.12016782 -0.13549168 0.10079915 0.017983539 0.16801022 0.23446253
0.03111145 0.13490267 0.07347986 -0.38455984 0.28647515 -0.15443845 -0.13373433 0.10352259
0.29504395 -0.00066086504 0.09231707 0.18349412 -0.42600703 0.15050757 0.077369325 -0.068091154
0.08076213 -0.07414164 -0.1634946 -0.18335313 0.04809701 0.06453635 -0.06241174 0.0036982417
-0.34246862 -0.082140945 0.08056657 0.20065497 0.3473413 0.1496504 0.06384704 -0.044760194
-0.04104309 0.2088765 0.13980408 0.057484098 0.055152643 0.06865366 -0.18418989 -0.064986646
-0.09032925 -0.0474916 0.067869306 -0.04712158 0.056156006 0.0401828 -0.1344354 0.14252129
0.1292707 0.17981382 0.045559056 -0.35087356 -0.09073421 0.07464799 0.13308834 0.055751037
-0.106834516 -0.15189683 -0.19248863 0.12782857 -0.05237482 0.07433777 0.054111302 -0.13958655
0.19488488 -0.1859709 0.0033913471 8.9263136e-05 -0.22530885 -0.30848616 -0.026343927 0.09706149
0.023881378 0.00022607716 0.04137144 -0.06516163 0.10486199 0.048244633 -0.1268481 0.03296444
0.07045113 0.11517999 -0.1061991 -0.2653248 0.117109336 0.039453376 -0.004904016 0.07551114
-0.22193187 -0.3356962 -0.12082029 0.2273425 0.08714286 -0.05610779 0.07880886 -0.03869541
0.04880162 -0.3448019 0.20841159 -0.15830003 -0.40905562 0.42940423 0.24211663 0.008901787
-0.013410677 -0.0998628 -0.48980796 -0.06213367 0.09062287 -0.0557597 0.21557815 -0.06461176
0.08823748 -0.07064786 -0.044805516 -0.059416864 -0.063310646 0.105464794 0.04940455 -0.0018524263
0.05128203 0.15997785 0.019828968 0.11624671 0.10421728 -0.09116748 -0.1714652 0.079973884
0.047166403 0.07785021 0.25903794 0.07464313 -0.14039952 -0.24167714 -0.05022989 0.079996206
-0.40875885 -0.00567437 -0.2193222 -0.054297075 -0.13337038 0.19737361 -0.0039058866 0.08421166
0.1566948 0.032034807 -0.0707897 -0.019341227 0.3393197 0.06007526 0.19327077 0.0104684485
-0.0051332302 0.048785634 0.0828109 -0.06179073 0.32853433 0.16274838 -0.14093684 0.33783662
-0.038937442 0.015548944 -0.033780932 -0.006979824 -0.021820255 0.15649284 0.12412421 -0.04100892
0.07939789 -0.11702858 -0.02334258 0.017526481 -0.077306606 -0.1309708 -0.02882483 -0.05347863
0.034249432 0.29537803 0.113899596 -0.075555146 -0.057636444 0.12670256 -0.5351341 -0.058893714

fc2.bias f4 [64]
00000000: 259b 70bc 2e07 82bd c3dd 853d 8a4a c5bc
00000010: 7e13 f1bd 6f25 083e ff77 eebd c2d6 35bd
00000020: fa1d 193c fad5 a63d ed96 44bc aeef db3d
00000030: 4d4f dc3d 5c35 bf3d a08c 93bd 8ad5 6abd
00000040: f2f6 433d 3e8a b93d d542 653d 6ef1 bfbd
00000050: c92c 443d e641 67be b806 dcbd 6c22 a23c
00000060: b883 183d eab2 903d 22d9 d7bd 3d52 ce3d
00000070: 80b8 303c e19d bf3d 88ed a33d 9a1b 913d
00000080: a47c 8d3d bcd3 51bc 1347 2f3b cc02 c73d
00000090: 8e47 483e cd33 09bc aca2 0ebe 1b70 1cbe
000000a0: fd5e 2cbe 2be4 ca3a fe1b 603d 3fff 113c
000000b0: 35b6 d83d 8b07 123e 3e17 b13c 1d38 1b3e
000000c0: f5b2 e5bd 5518 1c3e 2a46 c0bc 7ffd 853c
000000d0: aa63 083e 897f ac3d 9ef7 1dbd 40d3 0bbd
000000e0: 9b08 16be eb82 5abd de83 7dbe 6d13 f5bc
000000f0: a6e7 b0bd 9810 cf3d 9abb 4dbd 6a0f 36be
-0.014685427 -0.06349026 0.06536438 -0.024083395 -0.11771296 0.1329553 -0.11643981 -0.044394262
0.009345526 0.081462815 -0.011998874 0.10739075 0.10757313 0.09336349 -0.072045565 -0.057332553
0.047842927 0.09059571 0.05597194 -0.09372221 0.047894273 -0.22583732 -0.10743469 0.019791804
0.03723499 0.07065375 -0.10539462 0.100742795 0.010786176 0.09356285 0.0800429 0.07085343
0.06908539 -0.012806829 0.0026745244 0.0971733 0.19558546 -0.008374167 -0.13929242 -0.1527714
-0.1683311 0.0015479376 0.054714195 0.008910953 0.10581628 0.1426069 0.021617528 0.15158124
-0.11215774 0.15243657 -0.023470957 0.016356228 0.13319269 0.08422763 -0.038566224 -0.03413701
-0.1465172 -0.05334751 -0.24757335 -0.02991649 -0.086379334 0.10110587 -0.05022774 -0.17779317

fc3.weight f4 [2, 64]
00000000: dbfa e7bd 196a 9d3c 5bee 49be 3da9 dbbd
00000010: 0238 a8be eb34 3c3e 3398 863d 8de5 2cbe
00000020: 838f ec3c a327 b03e fb41 4bbf fa6e b23e
00000030: 0b8c 003b cbd7 4c3e 2729 13be 12c9 303e
00000040: 0aac 7e3e ccb6 293e 11bc 7e3e e18a 4740
00000050: 9f1c ac3c a25b 483f 41a3 a4be 51ff 8abe
00000060: f6f3 2d3d 4736 7d3e fcb5 cdbe 99c4 9f3d
00000070: e6d7 cfbe 4f2b a33d aecd ef3e 1e73 a03d
00000080: 08ce cabe 514c d2be 8551 1e3f b265 893e
00000090: 8156 78bc 927d b8bd 4b66 30be 9871 893d
000000a0: 5578 b2bd 7665 613e 5d7a d73e d0ea 773c
000000b0: a278 4abd 4b34 d93d 8fa6 373e eb84 323d
000000c0: 9753 1fbe 41fb 233d 7908 b9bd d12e 8b3f
000000d0: 404a b73d 34f7 253e c16c b5be 6fd6 f33b
000000e0: 6588 04be 864b 9a3e 3d95 983e 9d6a 98be
000000f0: 729a 51bd 8e6a c43e d76d 8c3e 4fb9 29bf
00000100: 9309 68bf fc33 033e b9bd 6f3e 6737 9cbd
00000110: 240e a03d c1cc d0be 2121 5b3e a942 ea3e
00000120: a292 e73d 1c07 9ebf 4e96 b4be 4d88 0bc0
00000130: 7bb0 b33e d874 163e 87c6 0c3e a21b e5bf
00000140: cc08 6d3e 3779 7ebe 208d b13d d27c 983e
00000150: dc93 58bf e9f9 84bf 2370 a0bd 6c51 88bc
00000160: 6894 8b3e 25ad 9bbe 47b7 393e 40cc 1abf
00000170: 6b12 28bd 1856 bb3d 19d2 f83d 2964 51bf
00000180: 3677 72bd 98c8 763e 127a 213e 17ad 37bf
00000190: 2238 45bf 8310 01bf 6b13 173e 3103 fabe
000001a0: 4711 b93d 9cc4 33bf 7fac 8b3e 4993 4b3e
000001b0: 1927 97bf 727a 99bf a024 46bf f3dd bdbf
000001c0: 2825 66bc 5b0d 9dbe 51cd cc3d 331e ed3e
000001d0: 61f0 90bf e221 a2bf e813 bf3d 0e6a 6cbf
000001e0: 5643 283e 991b 84be 23ae 563e 2200 2b3e
000001f0: d8bd ff3e ae5f 253e cbef 873e d70a 7abe
-0.11327144 0.01921563 -0.19719832 -0.10725639 -0.3285523 0.18379562 0.065719984 -0.16884442
0.028877025 0.3440524 -0.79397553 0.34850293 0.0019614722 0.20004193 -0.14371167 0.17264202
0.24870315 0.16573638 0.24876429 3.1178515 0.021009741 0.7826482 -0.32155803 -0.27147916
0.042468987 0.24727736 -0.40177906 0.0780117 -0.40594405 0.07967245 0.4683661 0.07834457
-0.39610314 -0.4107385 0.6184314 0.268354 -0.015157343 -0.09008326 -0.17226522 0.067111194
-0.08714358 0.2201136 0.42085543 0.015131667 -0.04943145 0.10605677 0.17934631 0.04358379
-0.1555923 0.040034536 -0.09034819 1.0873662 0.08949709 0.16207582 -0.35434535 0.007441334
-0.12942655 0.30135745 0.2980136 -0.2976884 -0.05117268 0.38362545 0.2742755 -0.66298383
-0.9063961 0.12812799 0.23412217 -0.07627755 0.07815197 -0.40781215 0.21399356 0.45753983
0.11307265 -1.234592 -0.35270923 -2.1801941 0.3509558 0.1469301 0.13747607 -1.7899058
0.23147887 -0.24850927 0.086694956 0.2978273 -0.84600616 -1.0388767 -0.078338884 -0.016640387
0.27261662 -0.30405536 0.18136321 -0.6046791 -0.04103319 0.091472805 0.12149448 -0.8179346
-0.05919572 0.24099958 0.15769222 -0.7174849 -0.77038777 -0.5041582 0.14753501 -0.4883056
0.090364985 -0.7022188 0.27280042 0.19880404 -1.1808807 -1.1990492 -0.77399635 -1.4833359
-0.014046945 -0.30674252 0.100000985 0.46312103 -1.1323358 -1.266659 0.09329969 -0.92349327
0.16431937 -0.25802305 0.20964865 0.1669927 0.49949527 0.1614978 0.26550135 -0.24418198

fc3.bias f4 [2]
00000000: ca8d 0f3e ef97 72be
0.14018932 -0.2369077
