checkpoint_0_actor.pth (torch_old, 48187 bytes, 10 tensors)

bn1.weight f4 [24]
00000000: a85c 1d3f 1e14 c33e ed19 233f 90ec f23e
00000010: 16ae 363f 2b79 1e3f a493 e23e 5822 c43d
00000020: 6839 1d3f 70d0 6a3d a2d2 103f b181 083f
00000030: beb4 c73e 4baa 683f d58a 083f 2f14 353f
00000040: 3f2b 363f 7cf4 513e b495 9d3e 9419 7b3f
00000050: 001f 283c e89c ee3e 4ab6 eb3e a7ca 5a3f
0.6146951 0.38101286 0.63711435 0.47446108 0.71359384 0.6190364 0.44253266 0.09576863
0.6141572 0.057327688 0.565714 0.53322893 0.39005083 0.90884846 0.5333684 0.7073392
0.7115974 0.2050342 0.30778277 0.98085904 0.010261297 0.46604085 0.46037513 0.8546547

bn1.bias f4 [24]
00000000: 0000 0000 0000 0000 0000 0000 0000 0000
00000010: 0000 0000 0000 0000 0000 0000 0000 0000
00000020: 0000 0000 0000 0000 0000 0000 0000 0000
00000030: 0000 0000 0000 0000 0000 0000 0000 0000
00000040: 0000 0000 0000 0000 0000 0000 0000 0000
00000050: 0000 0000 0000 0000 0000 0000 0000 0000
0.0 0.0 0.0 0.0 0.0 0.0 0.0 0.0
0.0 0.0 0.0 0.0 0.0 0.0 0.0 0.0
0.0 0.0 0.0 0.0 0.0 0.0 0.0 0.0

bn1.running_mean f4 [24]
00000000: 0000 0000 0000 0000 0000 0000 0000 0000
00000010: 0000 0000 0000 0000 0000 0000 0000 0000
00000020: 0000 0000 0000 0000 0000 0000 0000 0000
00000030: 0000 0000 0000 0000 0000 0000 0000 0000
00000040: 0000 0000 0000 0000 0000 0000 0000 0000
00000050: 0000 0000 0000 0000 0000 0000 0000 0000
0.0 0.0 0.0 0.0 0.0 0.0 0.0 0.0
0.0 0.0 0.0 0.0 0.0 0.0 0.0 0.0
0.0 0.0 0.0 0.0 0.0 0.0 0.0 0.0

bn1.running_var f4 [24]
00000000: 0000 803f 0000 803f 0000 803f 0000 803f
00000010: 0000 803f 0000 803f 0000 803f 0000 803f
00000020: 0000 803f 0000 803f 0000 803f 0000 803f
00000030: 0000 803f 0000 803f 0000 803f 0000 803f
00000040: 0000 803f 0000 803f 0000 803f 0000 803f
00000050: 0000 803f 0000 803f 0000 803f 0000 803f
1.0 1.0 1.0 1.0 1.0 1.0 1.0 1.0
1.0 1.0 1.0 1.0 1.0 1.0 1.0 1.0
1.0 1.0 1.0 1.0 1.0 1.0 1.0 1.0

fc1.weight f4 [128, 24]
00000000: 9d5e f43c 1b01 27be 0ef4 debc d937 7bbc
00000010: d203 ad3e 7f8c 64be 8a6e bdbc f86b 6c3d
00000020: a3bb 24bd cca5 95be 65d4 343d 327a 9e3d
00000030: 4b19 2d3e f989 21bd 7313 57bd 13f0 033e
00000040: bec9 0b3e 8c6d ffbd 9e10 2a3c ddd5 903d
00000050: 03ff a43e ac93 dfbd 3910 ca3d 8120 bd3d
00000060: e5eb 0fbe c801 99bd 0a30 33bc e273 bc3d
00000070: 70a8 05be 4774 3a3d 0cad c23d 4a56 293e
00000080: c252 0ebe b204 64bd 5129 c03c 3692 4d3e
00000090: 6a12 e9bc 85ba 9b3e 725a 03bd 4e7f 123e
000000a0: a01d 12be 043d 7dbb 4ac7 b7bd 9d02 273e
000000b0: 57ff b83d c693 de3e e468 b1bd 17fc 353e
000000c0: 55d4 5fbe fcad a83d 5b98 b43d 6675 1d3d
000000d0: 9e2d 25be 213e 31bc 053c cdbc 964b 1a3d
000000e0: b7b1 5bbe 86a3 953e bf2e 0a3d f102 6b3e
000000f0: ec17 d6bd 2149 7b3c f9fc 753d 13f6 a33e
00000100: 25d5 6fbe 55cc a33e c463 3cbd 2812 773e
00000110: f459 ea3d a1d6 92be 1998 7ebc 26f8 a73e
00000120: 5855 b53d bc19 c6bc b668 873c ce72 9ebd
00000130: 49bc 95bc 76ea 253d dc7f d03b 417c 19bd
00000140: 43fc df3d 1e4a bbbc 89f8 123d 3aa8 c5bd
00000150: 88da 8bbe cf97 4f3e 0543 1fbd fc60 b6bd
00000160: f0c8 f23d a4f8 1b3e c3ed 83bc 2981 2d3d
00000170: df28 97be 70b5 f5bc 8a38 ddbd b94b 2dbd
00000180: e44c 18bc 588c 10bf c12f ba3c 61c4 bf3e
00000190: 04d7 92bd 7376 7abb 0f64 c23c 5d4d 8c3e
000001a0: f15f 98bd dbf6 b8be 7d46 b03b b45c 133e
000001b0: 5097 8a3d b529 533e e8d7 553a 5c1e bc3d
000001c0: 7327 2abd 8e2f 89be 6ad9 8c3d 9657 7bbd
000001d0: f988 813e eb51 1f3e 5016 5abd 57d6 d5bd
000001e0: 1347 9a3c b269 493c d6b7 fa3d 3971 febc
000001f0: e16c dcbc 5975 87be da72 2d3d 7292 9cbd
00000200: 3e66 3f3d 0bbc 81bd 3906 60bd af52 64be
00000210: 6562 12bd b41c 253e 1d02 c5bd a251 22be
00000220: 9446 5ebd 8595 5ebe 6f95 68bd 53e1 2ebe
00000230: fef2 f4bc 657c aa3e edae 043d eb2b 39be
00000240: dc10 4fbd f76d aebc fc49 3cbd 622d babe
00000250: c745 91bd f4cd 18be e771 dabb 7eb2 b7be
00000260: 1fb5 26be f2c8 58be 8dfb 08bd 9f5b 6cbe
00000270: a186 0b3e 5dd7 0bbe b7f6 8a3b f1bf 92be
00000280: c1ae 30be c08d acbe b377 8dba e88b bbbe
00000290: 33e2 ba3c fa5e 05bd 30f1 57bc 4e4a 9abe
000002a0: 8319 f4ba e023 a8bd 0f8f 86bd 3baa d33d
000002b0: c422 ea3d 7aec 453d e739 77bd 3d27 6cbc
000002c0: 8288 043e 514d 63bd 57b4 ba3d 4e25 aa3c
000002d0: 120e 063e c7ec 6abe af22 1c3e c6b8 8ebd
000002e0: 596b 9e3c 9659 8ebd 8d85 3d3d 9e6c bb3d
000002f0: d616 553e 445b b1be 8cd2 1b3c 2e79 b83d
00000300: cd30 dbbd 38c0 f6bd 1ac9 31bd 9fe1 97bd
00000310: 0e6f 64bd 9b77 eb3d 9330 89bc f2ff a63c
00000320: 952e d93d d5a0 b83d 09d5 e3bb d96f 003d
00000330: 9678 b03e 4ed7 40be 448e debc 8260 f2bc
00000340: 8ab4 36bc 40d6 2fbe d18e 753b de81 b93d
00000350: 53ff 063f 95bf 11be 9c0a 87bc e8b1 b13d
00000360: 03db 7c3e 40aa 853b 4252 edbb 61b7 e73d
00000370: bdc3 26be 01c6 2dbe 0578 1c3d a39d 863d
00000380: a9d0 ab3e ead6 6b3d 16da 063b bd28 793d
00000390: 7691 63be 54bc 44be c3dd c5bc bb28 af3d
000003a0: 2f45 543e eef2 3e3e 7188 f2bc aa24 853c
000003b0: 81e2 76be 4e5f 6dbe bfe5 8cbd ef98 80bd
000003c0: 483f 5fbd d911 1fbe 30a9 e9bd f2c1 b2bd
000003d0: 01a9 29bd 20e0 40be 4bf2 fbbc a2db fabd
000003e0: c374 83bd 4fa8 bdbd b805 c2bc 99b8 12bd
000003f0: a02c 273d 3008 443e 5293 c6bd 6698 67bd
0.029830271 -0.16309015 -0.027215984 -0.015333139 0.33791977 -0.2231922 -0.023123998 0.057720155
-0.040218007 -0.29228055 0.044147868 0.07738151 0.1690418 -0.03943822 -0.052508783 0.1288455
0.13651177 -0.12472066 0.010379938 0.07072041 0.32225809 -0.10916838 0.098663755 0.09234715
-0.1405483 -0.07471043 -0.010936746 0.092017904 -0.13052535 0.045521047 0.09505662 0.16536823
-0.13898757 -0.05566854 0.023457201 0.20075306 -0.028451163 0.3041574 -0.032068677 0.14306375
-0.14269114 -0.0038641104 -0.08973558 0.1630959 0.09033077 0.43472117 -0.086625844 0.17771946
-0.21858342 0.0823631 0.08818122 0.038442038 -0.16130683 -0.010818035 -0.025053034 0.03766974
-0.21454512 0.2922632 0.033735987 0.22950341 -0.104537815 0.0153372595 0.060055707 0.32023677
-0.23421152 0.3199183 -0.04599358 0.2412802 0.114429384 -0.28679374 -0.015539193 0.3280651
0.08854169 -0.024182193 0.016529422 -0.07736741 -0.018278258 0.040506802 0.0063628983 -0.037472013
0.10936787 -0.02286249 0.035881553 -0.09651227 -0.27315164 0.20272754 -0.038882274 -0.08905217
0.11854732 0.15231568 -0.016104585 0.042359505 -0.2952337 -0.029993743 -0.108017996 -0.042308543
-0.009295676 -0.5646415 0.022727849 0.37454513 -0.07169917 -0.0038217574 0.023729352 0.27402773
-0.07440174 -0.36125836 0.0053794966 0.14390832 0.06767142 0.20621379 0.0008157478 0.09185478
-0.041541528 -0.26794094 0.06877406 -0.061362825 0.25299814 0.15558593 -0.053243935 -0.10441273
0.018832719 0.012293266 0.12242095 -0.031059848 -0.026907386 -0.26456717 0.04234586 -0.0764512
0.046728365 -0.063346945 -0.054693434 -0.22297166 -0.035738368 0.1612423 -0.09619544 -0.15851453
-0.054266527 -0.21736725 -0.056783136 -0.17078142 -0.029901024 0.3329803 0.032393385 -0.1808316
-0.050553188 -0.02129267 -0.045968994 -0.3636275 -0.07093387 -0.14922315 -0.0066664102 -0.35878366
-0.1628003 -0.21170405 -0.033443023 -0.23081826 0.13625576 -0.13656373 0.0042408365 -0.28662065
-0.17254163 -0.33701897 -0.001079312 -0.36630177 0.022812938 -0.03256128 -0.013180062 -0.30134815
-0.0018623326 -0.082099676 -0.06570255 0.10335203 0.11432412 0.048321225 -0.060357954 -0.014413652
0.12942699 -0.055493657 0.09116428 0.020769741 0.13091305 -0.22941886 0.15247606 -0.069688365
0.019338297 -0.06950681 0.046269942 0.091515765 0.20809492 -0.34639943 0.0095106475 0.09007488
-0.107026674 -0.120483816 -0.043404676 -0.07416081 -0.055769973 0.11497422 -0.016746795 0.020385716
0.10604588 0.09015051 -0.006952886 0.031356666 0.34467 -0.18832132 -0.027167447 -0.029587034
-0.011151442 -0.17171574 0.0037469158 0.09057973 0.52733344 -0.14233239 -0.016484551 0.08676511
0.24692921 0.0040791333 -0.007242472 0.113142736 -0.16285606 -0.16970064 0.038200397 0.065730356
0.33557633 0.057578005 0.0020576767 0.060829867 -0.22223458 -0.19212466 -0.024153596 0.085526906
0.20729516 0.18647358 -0.029606076 0.016252834 -0.24109842 -0.23180887 -0.06879758 -0.0627917
-0.05450371 -0.15534152 -0.11409223 -0.087283984 -0.04142094 -0.18835497 -0.030755183 -0.12248923
-0.06418755 -0.09260618 -0.023684368 -0.035820577 0.040814042 0.19143748 -0.09696068 -0.056541823

fc1.bias f4 [128]
00000000: 104c ffbd c7e6 f1bd eb18 753e 4d7c e13c
00000010: 30b3 6cbe 649a f4bd 6d01 503e e490 3bbe
00000020: 6c6a acbd 7570 70bb 9d9c 05be 92b1 373e
00000030: dd2e 8e3d b4de 83bc d22c 96bd 9339 86be
00000040: 9dff c9bd 3caa e5bd 8dfb 163e 37c6 55be
00000050: 17f9 863e 1318 c83c 3b3d 9c3d f7d0 78be
00000060: 648d 7bbd 653f 82be 6b6a 0b3e fdd5 933d
00000070: 613a 223e 04c2 40bd cb24 053e 0171 e0bd
00000080: 6abc 373e 938f f73d 8814 3b3e 3e26 323e
00000090: b84d 3b3e b127 363d ef19 5a3e 2582 563c
000000a0: 31b9 c2ba fb1f b2bd 6d8c 7a3c 9c82 1ebd
000000b0: 4538 91be 05fc 95bd fc70 5e3d 831e 583e
000000c0: c1fc b43e d851 6bbd 4678 943e 6a25 a23d
000000d0: 4ea8 c63d 8f0a 22bd 7757 d53e 9e20 87bc
000000e0: 49e0 763e ac5c b8bd 345c 183b adaf 28bd
000000f0: 6c58 183e f734 203e cfbe 8d3d 2172 4bbe
00000100: b574 843e 5161 5fbe 091d edbc af93 dbbd
00000110: 6972 573d f4c1 11bd 68dd 53be 94b8 0a3e
00000120: 64b5 413e 7e1e 843e 5845 193d 8581 0a3d
00000130: 6393 ebbd bf96 00bd 624e c6be 29a4 373d
00000140: 416f 82bd 9985 073f 98aa b3bc a9bc 073e
00000150: 2e41 0f3e 1075 34bc d6ec 83bc 0f53 0bbe
00000160: bf2f 06bc 1759 a43d 0875 cf3e f764 473c
00000170: 2b9c 2a3e 0703 b6be c137 1dbc d676 6a3d
00000180: 2641 b63e a5ec 853d 0a02 513e 1335 cabd
00000190: 4e21 b13c 0b72 06bc 1907 083d e35e 3d3e
000001a0: f6d2 303e c216 0cbe d9e1 9cbc 0426 1bbd
000001b0: 95b2 433d 1c8a 053c 95dc 98bd c884 353e
000001c0: 3130 943d 67b4 fe3d c06e 41be 94e4 d5be
000001d0: 75e0 88bd c7ac c63d 2030 bdbb 3aa5 e0bc
000001e0: 49d7 963e 4279 d8bd eec8 9bbe a0cc b9bc
000001f0: 41c8 063e f3a9 283e 42ce 31bd df08 273e
-0.1246568 -0.118115954 0.23935287 0.027525092 -0.2311523 -0.1194351 0.20313044 -0.1831699
-0.08418736 -0.0036688123 -0.13048024 0.17938831 0.06942532 -0.016097404 -0.073327675 -0.262158
-0.098632075 -0.1121411 0.14744397 -0.20876394 0.26361915 0.024425542 0.07628866 -0.24298464
-0.061414137 -0.2543899 0.13614814 0.072185494 0.15842582 -0.047060028 0.13002317 -0.10959054
0.17942968 0.120879315 0.18269551 0.173974 0.18291366 0.044471446 0.21298955 0.013092552
-0.0014856217 -0.08697506 0.015292269 -0.038698778 -0.28363243 -0.073234595 0.05430697 0.2110539
0.35349086 -0.0574511 0.2899801 0.079172924 0.0970007 -0.03956085 0.41668293 -0.016495045
0.24108995 -0.09002051 0.0023248317 -0.041183162 0.1487748 0.15645204 0.069211595 -0.19867755
0.2587029 -0.21814467 -0.02894451 -0.10721528 0.052599344 -0.03558536 -0.20689929 0.13546973
0.18916851 0.25804514 0.037419647 0.033814926 -0.11502721 -0.031393763 -0.38731676 0.04483429
-0.06368876 0.5293823 -0.021931931 0.13255562 0.13989708 -0.011014238 -0.016104143 -0.13605903
-0.0081900945 0.08024805 0.40518975 0.012170068 0.16661136 -0.35549185 -0.009595812 0.057242237
0.3559658 0.06539277 0.20410934 -0.09873404 0.021622326 -0.008205901 0.033209894 0.18493228
0.17267975 -0.13680556 -0.019150661 -0.03787805 0.04777773 0.008150604 -0.07463948 0.17726433
0.07235754 0.12436753 -0.18889904 -0.41775954 -0.06683437 0.097009234 -0.005773559 -0.027422536
0.29461125 -0.10570003 -0.30426735 -0.02268058 0.13162328 0.1647108 -0.043409593 0.16311978

fc2.weight f4 [64, 128]
00000000: 4813 cf3e 8bcc 6d3e 1b4b 153e 13fd 70be
00000010: acf3 933e 63ad 4dbe cf26 9b3e d8fc 3bb9
00000020: 44a9 e3bd 2256 2dbe 3008 ad3c a0eb 78be
00000030: 12bf 2bbe 1bf5 263d bd3a a8be b617 9d3a
00000040: 29e0 553d 4a61 85bd b653 673e 84d1 ffbd
00000050: cd0c ed3d f75f c1ba 66a0 813e d6d4 783e
00000060: b23a 8abe 1a26 f5bc d031 ba3c ea07 f1bd
00000070: 2cd5 a13d 33b2 92be 4e1f 2ebe 5e55 933d
00000080: 0c85 863d d9c3 1d3d 6e71 e83e b368 d3be
00000090: 75b4 993d 5d9d 24bd 775c b63d 0864 fc3b
000000a0: 7cf3 d53c a678 99be 4b3c e6bd dca0 1c3e
000000b0: 4852 e93d 549f 313e d577 b9bd 7295 923d
000000c0: 6d4f e3bd b535 c83d 37ce f63d 7d16 a0be
000000d0: 73b2 41bc 75c9 9c3c e7ab b63d 5792 dc3d
000000e0: 656a 49bd d810 cc3e c9be 1c3d d56a 7cbc
000000f0: eefb 4fbd a77d 16bd 4238 98be 4e56 ef3d
00000100: f084 443e 3c2b 94bd a490 763c c041 143f
00000110: 62cd d83d f4dd 333e c033 323d 3057 16be
00000120: b20e bdbc 6022 19bd deca 07bd 6930 a63e
00000130: 472d 4bbe 8920 c8bd 5b26 debd c938 473e
00000140: e79a 54be 8252 873e 5930 4f3d 5cce 8a3d
00000150: 4758 1a3c 8f7e ad3c c4c9 b3be 3f57 50be
00000160: c9fe b23d 5028 3abe eaac 5d3e 237b 31bd
00000170: 5d98 a63e f047 ccbc 9964 383e f3eb 22be
00000180: e91e d23d 0862 203e 6a59 0cbe 05a9 92bd
00000190: 6ea7 cbbe 9103 033e cf4f 21be 6d7e 8bbe
000001a0: e507 a6bd c953 4b3e c871 78be a2e7 00bf
000001b0: 73d6 113e e945 8b3e 6e9b 8cbd a74e c03e
000001c0: 6c65 303d 9257 a03d 70d4 433f 0e3f d0bc
000001d0: 9ae7 8b3d dcc4 353e 89f6 c03c 0d19 31be
000001e0: eb70 eebd 46d9 60be 90d1 143e bac2 d5bd
000001f0: bc67 b33d 61d6 22bd 92da 27be 372c 3cbd
00000200: 2737 043e aa72 563e b02c 18be 0016 07bd
00000210: 6967 ff3c 8bc7 a43d 4921 ac3d 1d63 943d
00000220: fc26 36be 0c37 15be 02bc 673e 29ce 23bd
00000230: 7a26 8ebe 0126 9bbe 9bc1 00bf e706 16be
00000240: afd4 e4bd 7c59 763e b4cc 60bf 6b9f 943e
00000250: 44c4 0dbe f51b cd3b 4e60 7c3e add3 193e
00000260: 344c 2f3d 6b59 643d acbb f93d 1f96 543e
00000270: 04e0 083e bb06 b5bc e2d1 72bd ec82 133e
00000280: 7d89 913e c520 31bd cf6a 743c f19d 953e
00000290: c3f8 713d 7333 b13e 6dc3 c3be 3e6a ec3d
000002a0: 9ef7 69be 1422 fe3e d92d 2cbd e063 c93d
000002b0: e7d9 503e f1cf 81bd 21c3 73be 6386 b2bd
000002c0: bddb a93e f422 8c3c b031 623e 668e 233e
000002d0: 365e 4bbf 85a9 a4bd 788b 39be 8f40 4b3e
000002e0: 13e7 55be d2a3 303d 8019 25be 1301 643e
000002f0: aafb c73e 2182 0a3e c160 10bf d8c7 1d3e
00000300: 5cc6 e9bd 4665 573e b5fe 81bd 5575 67bf
00000310: 0d3b d63d c0ad 36be 9fa6 e03d 1856 133d
00000320: 8977 a93d a123 fe3c 131c 4b3e ba11 3e3e
00000330: f1c1 16be cda9 c63e 7c1c bebd f167 5a3d
00000340: 6f78 203e 0d6b b1be c75f 803d f43c 793d
00000350: 87bb a8be cb7c c3bd 2c7c 5dbd b225 c93d
00000360: 4a6c 35be a83d b03c 71e8 633e dede 273d
00000370: 85ce 15bf c49d 2abe 8545 073e 601a 00bd
00000380: 0c51 89bd 4591 2cbe f842 053e 45f6 f43d
00000390: 0c48 adbd 79c1 ff3d f3a7 20bd 8874 4abe
000003a0: 1a53 60bd 9f15 253e 6355 f5bd 3947 8dbd
000003b0: c281 613e 86cb 453e 6fc8 573e ded5 1c3e
000003c0: 0929 d13c 2bfc 6ebe fc10 a8be 9590 02bd
000003d0: 2faf 443d dc4e 9e3e 2352 0b3e ef9b 8b3d
000003e0: e9c9 f83e 6126 d6bc 485c 453e 6249 743e
000003f0: 04e3 073e 6f09 053e dc44 6abe 3576 823d
0.40444398 0.23222558 0.14579432 -0.2353404 0.28896844 -0.20085673 0.30303046 -0.00017927901
-0.11116269 -0.16927388 0.021122068 -0.24308634 -0.16772106 0.040761095 -0.32857314 0.0011985216
0.05221573 -0.06512697 0.22590527 -0.12491134 0.11574707 -0.0014753331 0.25317687 0.2429994
-0.26997906 -0.029925395 0.02272883 -0.117690876 0.079019874 -0.2865158 -0.1700413 0.07194017
0.065683454 0.038516853 0.4539904 -0.41290817 0.075051226 -0.040189136 0.08904355 0.0077023543
0.026117079 -0.2997486 -0.11241969 0.15295738 0.11392647 0.17345935 -0.09056059 0.07157411
-0.11099134 0.09775869 0.12051051 -0.31267157 -0.011822331 0.019139031 0.089195065 0.107700996
-0.04917373 0.398566 0.038267884 -0.01540633 -0.05077737 -0.036740925 -0.2973042 0.11686383
0.19191337 -0.07234809 0.015049133 0.57912827 0.10586049 0.17565137 0.043506384 -0.14681697
-0.023078296 -0.0373863 -0.033152454 0.3245881 -0.1984149 -0.097718306 -0.108471595 0.19455256
-0.20762216 0.26430136 0.050583217 0.06777641 0.009420461 0.021178512 -0.35114872 -0.20345782
0.08740003 -0.1817944 0.21647993 -0.043330323 0.3253812 -0.024936646 0.18007125 -0.1591032
0.10259802 0.15662396 -0.13705984 -0.07161144 -0.39776176 0.12794329 -0.15753101 -0.27244893
-0.081069745 0.1985618 -0.24262154 -0.50353444 0.14241962 0.27201775 -0.06865583 0.37560007
0.043065473 0.07829203 0.7649603 -0.025420692 0.06831284 0.17750877 0.023555057 -0.17294712
-0.11642631 -0.21957883 0.14533067 -0.10437532 0.0876002 -0.03975523 -0.16391972 -0.045940604
0.12911664 0.20942178 -0.14860797 -0.032979965 0.03117724 0.08045872 0.08404786 0.07245467
-0.17788309 -0.1457178 0.22630313 -0.03999153 -0.2776373 -0.30302432 -0.5029542 -0.1465107
-0.11173379 0.24057573 -0.8781235 0.29027876 -0.138444 0.0062594363 0.24646112 0.15022154
0.042797282 0.055749338 0.12193999 0.20760392 0.13366705 -0.022097936 -0.05928219 0.14405411
0.28425208 -0.043244142 0.014918043 0.29222062 0.05907513 0.34609565 -0.38235036 0.115437016
-0.22848365 0.49635375 -0.04203591 0.09833503 0.20395623 -0.0633849 -0.23804905 -0.087170385
0.3317546 0.01710651 0.22089267 0.1597229 -0.7944063 -0.08040146 -0.1811961 0.19848846
-0.20888929 0.04312498 -0.16123009 0.22266035 0.39059192 0.13526203 -0.56397635 0.15408266
-0.11414787 0.21034727 -0.0634741 -0.9041341 0.10460482 -0.17839718 0.109692805 0.035970777
0.08274753 0.031022849 0.19834928 0.1856145 -0.1472242 0.38801423 -0.09282777 0.053321782
0.15670942 -0.34651986 0.06268268 0.060849145 -0.32955572 -0.09545287 -0.054073498 0.09821643
-0.1771709 0.021513775 0.22256638 0.040984027 -0.5851825 -0.16661745 0.13210113 -0.031275153
-0.067049116 -0.16852291 0.13013828 0.11961035 -0.084610075 0.12488074 -0.03922267 -0.19771016
-0.05476675 0.16121529 -0.11979177 -0.0689835 0.22022155 0.1931592 0.21072553 0.15315959
0.025532262 -0.23338382 -0.32825458 -0.031876165 0.04801863 0.3091954 0.13605551 0.06816851
0.48591545 -0.026141347 0.19273484 0.23856118 0.13270193 0.1299188 -0.2287783 0.063702025

fc2.bias f4 [64]
00000000: d6fe 0b3e 794c 543e 9ae4 003e 5a50 c03c
00000010: ec8b c33c 66ff e53b b11e 11be d624 3fbe
00000020: 0c01 3bbc 8da6 bcbd 6c84 41be b6ab 4a3e
00000030: 4547 953c 793c c1bb 9854 51bd 009b b9bd
00000040: f3cb c93d 47d6 c0bd 2c2c 133e a1db ea3c
00000050: 2f3f e1bd 8999 42bd 869b d13d 8e13 b23c
00000060: c210 843d c519 8ebb c409 263d 3b04 17be
00000070: ec77 b8bc 8bab bd3d d6d7 c2bd a839 5d3c
00000080: 3acd 253c 644a bebc 146e e6bd b913 753d
00000090: 1fc1 80bd 8e79 8b3d 923a 053d 657f 42be
000000a0: bf25 013e eda9 86bd 921b 90bc 7e05 56bb
000000b0: 589a 90bc 2353 a1bc d270 68be 270b 80bd
000000c0: d4a4 b83d cfaa c33c 0299 e53d a0c9 023e
000000d0: 7500 053e 35e1 babc cd66 4abd f55b 773d
000000e0: 571c 6f3d d440 79bd 0cb1 213e 13f9 2bbd
000000f0: 9a9e 993d 8ced 2dbe 255c 10bd 45c2 f93d
0.13671431 0.20732297 0.12587205 0.023475815 0.02387043 0.0070189713 -0.14171864 -0.18666396
-0.011413824 -0.092114545 -0.18898171 0.19792065 0.01822246 -0.0058971015 -0.051106066 -0.09062767
0.09853353 -0.0941587 0.14372319 0.02866918 -0.109983794 -0.047509704 0.10234742 0.02173784
0.06448509 -0.004336568 0.040536657 -0.14747708 -0.02251812 0.09261235 -0.09513824 0.013502516
0.010119731 -0.023228832 -0.112514645 0.059833262 -0.06286835 0.06810294 0.03252656 -0.1899391
0.12612055 -0.065753795 -0.017591272 -0.0032657082 -0.017651722 -0.019692963 -0.22699288 -0.06252127
0.090158135 0.023885159 0.112108245 0.12772226 0.12988456 -0.022812465 -0.049414445 0.06039043
0.058376636 -0.06085284 0.15790194 -0.041985583 0.07500954 -0.16985148 -0.035244126 0.12195257

fc3.weight f4 [2, 64]
00000000: e18b 033f b2a4 8cbd 40de a63e 7fff f0bd
00000010: 8ffe c3bc 64fd 4ebd 0614 7ebe 92ec 3f3f
00000020: 4a33 82be dc0f a03e 175b 873e 99ce d83d
00000030: 7351 2abd 4c3f 653d ca42 ebbc 2a73 953e
00000040: 8dd1 98be 75e1 ad3e a845 89be 4511 903d
00000050: f357 e5bd db34 07be 004b 02bd c442 b0bd
00000060: 22a1 523e 039c 0ebd c7d6 963e 3409 393e
00000070: 4bfc 2cbe 0aad 0e3e 9170 1f3e 1684 1bbd
00000080: 6f35 073f 62b9 12bd 4c59 293c 7372 3a3e
00000090: e245 b8be 1810 afbd d9a1 01bb fbc1 d23e
000000a0: 1258 e3bd 178c dc3e 2cdf 9e3e e848 80be
000000b0: 639f c3bc c6ba d0bd 39cd c03e 2ec4 a1bc
000000c0: 851e 0d3f 6f2f debd 1db8 debc 1418 75bd
000000d0: 036b e33d 61ec 67bd aabf a0bd d438 21bd
000000e0: f2ad b13e cc7d fa3d bcdc db3e 96ab b23e
000000f0: 3464 6a3e b056 713f 763f a43e 6669 19bd
00000100: c6f5 4cbd a2a0 033f 98c9 a9bd f6df 243e
00000110: 7dcb 55be 5134 29be abfb 923f 6a30 703e
00000120: 0ec2 da3e 3220 fb3e 7f36 2b3f c346 a73d
00000130: 2b9a 27be 58ae 83bd fa25 3fbe 20ca 8d3e
00000140: ffb8 0cbe 65d4 513d bb48 033f d879 403e
00000150: 4748 7b3e 2f69 6b3d df30 3abe 52ec bb3e
00000160: fed9 b4bd a082 25be bbba f5bc bb33 253e
00000170: a531 2a3f 4c89 87bd 62aa f43d 46e9 36be
00000180: fdcb a8bd 9dea 3abe 0a67 68be d99d 1b3f
00000190: 46c6 833e 49db fb3e 98c4 56be 2e5d 313f
000001a0: 7421 ca3d 2a88 08bc e241 eb3c 34d2 243f
000001b0: 0ce7 2cbe 3d64 593e 1222 f03e f4eb 89be
000001c0: e9d9 813e f945 963e 2023 1cbe d5b3 33be
000001d0: bc3c c53e 88ac 1dbe 82fd 443f 8a50 48be
000001e0: 204f 123e c999 163c e1bf d93d 1831 9ebc
000001f0: 2737 94be 5615 50bf 3066 883b 1f7e ee3e
0.51385313 -0.06867351 0.32591438 -0.11767482 -0.023925094 -0.05053462 -0.24812326 0.7497035
-0.25429755 0.312621 0.26436684 0.105862804 -0.041581582 0.055968568 -0.028718371 0.29189426
-0.29847375 0.33961073 -0.26810956 0.07034544 -0.111984156 -0.13203757 -0.031809807 -0.086064845
0.2056928 -0.034816753 0.29460737 0.18069917 -0.16893117 0.13933197 0.15570284 -0.037967764
0.5281591 -0.035821326 0.010336231 0.18207721 -0.35990816 -0.085479915 -0.0019780307 0.4116362
-0.111007825 0.4307563 0.31029642 -0.25055623 -0.023879712 -0.10191874 0.37656572 -0.019746866
0.55124694 -0.10848891 -0.027187401 -0.059837416 0.11104395 -0.056621913 -0.07849057 -0.039360836
0.34703022 0.12231025 0.42941844 0.34896535 0.22889787 0.942729 0.32079667 -0.03745403
-0.050039075 0.5141698 -0.08290404 0.1610106 -0.20878406 -0.16523863 1.1483053 0.23455968
0.42726177 0.49048 0.6688003 0.081677936 -0.16367404 -0.06429738 -0.1866683 0.27693272
-0.13742445 0.051227946 0.5128285 0.1879648 0.2453929 0.057473358 -0.18182705 0.36703736
-0.08830641 -0.1616311 -0.029996267 0.16133015 0.66482 -0.06617984 0.119465604 -0.17862424
-0.08242033 -0.1825356 -0.22695556 0.6078773 0.25737208 0.4919074 -0.20973432 0.69282806
0.09869662 -0.008333245 0.028717939 0.64383245 -0.16885012 0.21229644 0.46900994 -0.2693783
0.25361565 0.2935026 -0.15247774 -0.17549069 0.385229 -0.15397847 0.7694932 -0.19561973
0.14287996 0.009191939 0.10632301 -0.01931052 -0.28948328 -0.81282556 0.0041625723 0.46580598

fc3.bias f4 [2]
00000000: eafa 80bd 084b 153e
-0.06297858 0.14579403
