checkpoint_1_critic.pth (torch_old, 19235 bytes, 11 tensors)

fcs1.weight f4 [64, 24]
-0.9444571 -1.6361876 0.09083664 0.22305435 0.17359002 -0.91471255 0.17646536 0.19789416
-0.08748173 -0.5491132 0.4073783 0.63692766 -0.40407315 -0.08006349 0.5135159 0.63295573
-0.08759214 -0.37999043 -1.1286628 -0.5074361 0.04729442 -0.28276637 -1.0287656 -0.7351981
-0.57616854 -0.44523856 -1.0573151 -0.76388335 -0.33465967 0.18954405 -1.2873363 -0.67175925
-0.35430235 -0.1900536 -1.1104413 0.45577064 0.01940552 -0.57463104 -1.0219296 0.34813818
-0.24340121 -0.2073155 0.9842276 0.87902194 0.14359553 -0.7182 0.8621264 0.78924555
0.00941502 0.3855253 -0.004273575 -0.29961368 0.10181143 0.4733752 0.015612358 -0.13187058
0.535357 0.90939885 0.5528139 0.052956916 -0.72800034 -0.14281683 0.7183919 0.18357843
1.5595064 1.604066 0.5767308 0.51594967 0.9890244 -2.141342 0.750323 0.5417529
-0.17815672 -0.009893396 -0.15811913 1.4218775 0.15505154 0.31613904 -0.17048599 1.4650575
-0.32676262 0.56472975 -0.16990674 0.26875162 0.038780544 -1.2406515 -0.00012314113 0.33605653
-0.59566087 0.6154812 -0.32351816 -0.34591818 -0.22904123 -1.8093615 -0.30025357 -0.23354761
-0.13751759 -0.2290925 -0.51456577 -0.5670577 -0.15992585 -0.5344474 -0.41194707 -0.5100216
-0.061421532 -0.50698537 0.964447 -0.29828867 0.045346055 -0.4831351 0.84878016 -0.15231323
0.16034457 -0.62347734 0.35210833 1.2521362 -0.15026253 -0.2934583 0.29001835 1.1300151
0.4157661 1.025688 -0.20245749 -0.23400202 -1.0277553 -0.2915176 -0.16616464 -0.16993016
0.87268245 0.89256626 0.18783717 -0.4993759 -0.99790996 -0.36965236 0.15736829 -0.33563527
0.9372543 0.24474238 -0.09727247 0.9813736 -1.2250232 -0.048431326 0.018786777 1.0258777
0.4728038 0.11894229 0.1934716 -0.4291831 -0.2366446 0.08040496 0.3473594 -0.37086543
0.6242006 0.036831755 -0.16065514 0.3566991 -0.7931594 -0.08915471 -0.08060624 0.26969898
0.9913497 0.18687831 0.45979583 1.2103659 -1.1886725 -0.7697542 0.45240384 1.3733312
-0.24230224 0.19222811 -0.046578024 -0.96167606 -1.0979892 -0.27536365 0.010979785 -1.0550795
0.21500227 1.0035057 -0.15760405 -0.1026732 -0.5389058 -0.47707382 -0.085988075 -0.019044105
0.7686238 1.2144386 -0.28772742 1.4684657 -0.42406863 -0.34543034 -0.3104903 1.6789964
-0.21506451 -1.389707 -0.08971281 -0.73831064 1.1898975 -0.6085679 -0.12167755 -0.80256647
-0.6803861 -0.15540332 -0.15206875 -0.38687408 -0.089920245 -1.1499915 -0.13198568 -0.3972637
-0.61922455 -0.020774044 -0.33223885 2.3016026 0.058502164 -1.2854478 -0.14606944 2.3188255
0.08936279 1.4737318 0.19587076 0.38190416 -0.07194467 1.297365 0.31084016 0.5313443
-0.12953325 3.2572544 0.1598818 0.08437933 -0.6970004 0.6161953 -0.006755993 -0.018279407
-0.063596115 2.5829844 0.12528057 -0.7688647 1.395449 -0.5003604 0.13932002 -0.6537164
-0.0053657 -0.013760211 -0.054001536 0.121738695 -0.4960496 -0.48804554 -0.04728769 0.1125272
0.58931655 -0.022227606 -0.055475958 1.5515876 0.7733492 1.0959568 -0.06750767 1.4364269
00000000: f1c7 71bf 986e d1bf 8f08 ba3d 5c68 643e
00000010: 95c1 313e 9a2a 6abf 56b3 343e c4a4 4a3e
00000020: 9f29 b3bd af92 0cbf e393 d03e b10d 233f
00000030: ade2 cebe 54f8 a3bd c775 033f 6309 223f
00000040: 8263 b3bd 1b8e c2be 0678 90bf 55e7 01bf
00000050: cbb7 413d c1c6 90be 97ae 83bf f135 3cbf
00000060: c87f 13bf 4ff6 e3be 1a56 87bf dc8d 43bf
00000070: 8358 abbe d617 423e 70c7 a4bf 6af8 2bbf
00000080: 1e67 b5be 699d 42be f122 8ebf c55a e93e
00000090: 53f8 9e3c 051b 13bf 97ce 82bf 2b3f b23e
000000a0: 2b3e 79be 844a 54be 57f6 7b3f 9507 613f
000000b0: b50a 133e f5db 37bf 51b4 5c3f ff0b 4a3f
000000c0: 7541 1a3c 9263 c53e 5809 8cbb f766 99be
000000d0: 8382 d03d 3c5e f23e faca 7f3c 1509 07be
000000e0: 280d 093f 5dce 683f 3685 0d3f 5ae9 583d
000000f0: 3b5e 3abf 933e 12be 88e8 373f fcfb 3b3e
00000100: e89d c73f 0952 cd3f a1a4 133f 4715 043f
00000110: b430 7d3f bf0b 09c0 2b15 403f 51b0 0a3f
00000120: b76e 36be e917 22bc fbe9 21be 1500 b63f
00000130: d5c5 1e3e fadc a13e e193 2ebe 0187 bb3f
00000140: 6e4d a7be 2192 103f 08fc 2dbe d099 893e
00000150: 59d8 1e3d abcd 9ebf 721f 01b9 9a0f ac3e
00000160: 3b7d 18bf 2d90 1d3f 2ca4 a5be 301c b1be
00000170: c989 6abe 2899 e7bf d6ba 99be 1b27 6fbe
00000180: 69d1 0cbe 3997 6abe 95ba 03bf b22a 11bf
00000190: 9ac3 23be 8bd1 08bf baea d2be c790 02bf
000001a0: 2595 7bbd cbc9 01bf 00e6 763f 4bb9 98be
000001b0: c9bc 393d 7c5d f7be a849 593f 00f8 1bbe
000001c0: 5e31 243e 369c 1fbf 8b47 b43e 0046 a03f
000001d0: 6cde 19be 2b40 96be 497d 943e 56a4 903f
000001e0: 4bdf d43e bf49 833f 0451 4fbe 3a9e 6fbe
000001f0: 7c8d 83bf cb41 95be 1027 2abe 2c02 2ebe
00000200: 1e68 5f3f 397f 643f 6358 403e 33ae ffbe
00000210: 0777 7fbf 1343 bdbe 2725 213e 63d8 abbe
00000220: e6ef 6f3f bf9d 7a3e ca36 c7bd 4d3b 7b3f
00000230: 8fcd 9cbf ed5f 46bd bae6 993c f64f 833f
00000240: 5713 f23e 0498 f33d 6b1d 463e e3bd dbbe
00000250: f652 72be 5bab a43d 17d9 b13e 13e2 bdbe
00000260: 9ccb 1f3f e5dc 163d c882 24be 44a1 b63e
00000270: 7f0c 4bbf bf96 b6bd e214 a5bd fc15 8a3e
00000280: 18c9 7d3f 075d 3f3e 5c6a eb3e 45ed 9a3f
00000290: 6c26 98bf 9c0e 45bf 7aa1 e73e 51c9 af3f
000002a0: 141e 78be 72d7 443e 99c8 3ebd 6730 76bf
000002b0: e98a 8cbf 77fc 8cbe 8ee4 333c d80c 87bf
000002c0: 8e29 5c3e e072 803f f562 21be 5446 d2bd
000002d0: bbf5 09bf 0543 f4be 841a b0bd 6202 9cbc
000002e0: 88c4 443f b972 9b3f 0251 93be aff6 bb3f
000002f0: 861f d9be 3fdc b0be 96f8 9ebe 5be9 d63f
00000300: df39 5cbe ebe1 b1bf 5abb b7bd ed01 3dbf
00000310: 904e 983f 1bcb 1bbf 1432 f9bd ff74 4dbf
00000320: c92d 2ebf 0c22 1fbe e9b7 1bbe 5c14 c6be
00000330: 1b28 b8bd ec32 93bf 4127 07be 2666 cbbe
00000340: 8085 1ebf 542e aabc 361b aabe 754d 1340
00000350: f79f 6f3d 8e89 a4bf 3a93 15be a367 1440
00000360: d703 b73d 3ea3 bc3f 5892 483e f188 c33e
00000370: ba57 93bd 0e10 a63f 7126 9f3e 2e06 083f
00000380: 5da4 04be db76 5040 0eb8 233e 12cf ac3d
00000390: 9e6e 32bf fabe 1d3f 6061 ddbb b2be 95bc
000003a0: ae3e 82bd 9e4f 2540 8d49 003e 51d4 44bf
000003b0: 139e b23f 9f17 00bf e8a9 0e3e f559 27bf
000003c0: c1d2 afbb 8272 61bc b730 5dbd 2352 f93d
000003d0: 37fa fdbe 1be1 f9be bdb0 41bd a974 e63d
000003e0: 73dd 163f ab16 b6bc c23a 63bd 6c9a c63f
000003f0: 37fa 453f 5048 8c3f 7641 8abd d6dc b73f

fcs1.bias f4 [64]
-0.59776944 -0.08607875 1.0992626 -0.06473956 -0.4264205 -0.123005316 0.04784783 -0.90000093
-0.24729465 1.4842505 0.524182 0.26964986 1.6562536 0.15709235 0.22336255 -0.5143405
-0.16788697 1.1160067 -0.38919294 0.35566103 -0.3072023 0.20927472 0.46005014 0.33861288
-0.42581752 -0.16636103 0.06224807 0.29882744 -0.3240285 1.7062383 -1.1185582 -0.07617753
0.881231 -0.86263627 1.4346005 -0.5205971 0.8391218 -0.015973864 -0.28036845 0.38793844
-1.5534958 0.22107917 1.4058908 -0.5377599 -1.6006805 -0.62886244 0.059977792 0.5849089
1.0261792 -0.41546702 0.7068752 -0.4231048 -0.31274378 -0.8918594 0.13932575 0.86323637
0.59472805 -0.048535276 -0.41796997 -0.3167085 0.0026858677 1.1967441 -0.6924017 0.41937125
00000000: 6b07 19bf 0e4a b0bd a3b4 8c3f 2d96 84bd
00000010: ca53 dabe 36ea fbbd 16fc 433d 7666 66bf
00000020: cf3a 7dbe ecfb bd3f cb30 063f 8c0f 8a3e
00000030: 1e00 d43f d1dc 203e 27b9 643e d2ab 03bf
00000040: 90ea 2bbe 4fd9 8e3f 4c44 c7be 3419 b63e
00000050: 9f49 9dbe 1d4c 563e b18b eb3e ab5e ad3e
00000060: c104 dabe 8c5a 2abe d5f7 7e3d e9ff 983e
00000070: 10e7 a5be 0466 da3f ea2c 8fbf f702 9cbd
00000080: 5b98 613f bbd5 5cbf fda0 b73f da45 05bf
00000090: b0d0 563f 9fdb 82bc 748c 8fbe de9f c63e
000000a0: f3d8 c6bf 9462 623e 3bf4 b33f a2aa 09bf
000000b0: 19e3 ccbf 21fd 20bf 46ab 753d 97bc 153f
000000c0: d759 833f 18b8 d4be c6f5 343f 31a1 d8be
000000d0: f41f a0be e650 64bf 69ab 0e3e 0ffd 5c3f
000000e0: 1940 183f edcc 46bd 2900 d6be 9e27 a2be
000000f0: 6205 303b e92e 993f 3d41 31bf d4b7 d63e

bn1.weight f4 [24]
0.07682443 0.9868941 0.88113266 0.88632214 0.085668206 0.815895 0.6511871 0.21450561
0.8351292 0.6756715 0.5943214 0.092422545 0.16820961 0.713818 0.6224116 0.88079405
0.20486307 0.9466844 0.47679186 0.2689154 0.15821922 0.12287009 0.66524816 0.95258886
00000000: 2056 9d3d 17a5 7c3f e991 613f 02e6 623f
00000010: d072 af3d 7fde 503f 33b4 263f 5ca7 5b3e
00000020: 07cb 553f cff8 2c3f 7325 183f 0848 bd3d
00000030: 243f 2c3e c7bc 363f 5e56 1f3f b87b 613f
00000040: a0c7 513e e959 723f 101e f43e 48af 893e
00000050: 3804 223e 50a3 fb3d b44d 2a3f dddc 733f

bn1.bias f4 [24]
0.0 0.0 0.0 0.0 0.0 0.0 0.0 0.0
0.0 0.0 0.0 0.0 0.0 0.0 0.0 0.0
0.0 0.0 0.0 0.0 0.0 0.0 0.0 0.0
00000000: 0000 0000 0000 0000 0000 0000 0000 0000
00000010: 0000 0000 0000 0000 0000 0000 0000 0000
00000020: 0000 0000 0000 0000 0000 0000 0000 0000
00000030: 0000 0000 0000 0000 0000 0000 0000 0000
00000040: 0000 0000 0000 0000 0000 0000 0000 0000
00000050: 0000 0000 0000 0000 0000 0000 0000 0000

bn1.running_mean f4 [24]
0.0 0.0 0.0 0.0 0.0 0.0 0.0 0.0
0.0 0.0 0.0 0.0 0.0 0.0 0.0 0.0
0.0 0.0 0.0 0.0 0.0 0.0 0.0 0.0
00000000: 0000 0000 0000 0000 0000 0000 0000 0000
00000010: 0000 0000 0000 0000 0000 0000 0000 0000
00000020: 0000 0000 0000 0000 0000 0000 0000 0000
00000030: 0000 0000 0000 0000 0000 0000 0000 0000
00000040: 0000 0000 0000 0000 0000 0000 0000 0000
00000050: 0000 0000 0000 0000 0000 0000 0000 0000

bn1.running_var f4 [24]
1.0 1.0 1.0 1.0 1.0 1.0 1.0 1.0
1.0 1.0 1.0 1.0 1.0 1.0 1.0 1.0
1.0 1.0 1.0 1.0 1.0 1.0 1.0 1.0
00000000: 0000 803f 0000 803f 0000 803f 0000 803f
00000010: 0000 803f 0000 803f 0000 803f 0000 803f
00000020: 0000 803f 0000 803f 0000 803f 0000 803f
00000030: 0000 803f 0000 803f 0000 803f 0000 803f
00000040: 0000 803f 0000 803f 0000 803f 0000 803f
00000050: 0000 803f 0000 803f 0000 803f 0000 803f

fc2.weight f4 [32, 66]
0.08076336 -0.21254577 -0.1114232 0.1012281 -0.16034694 0.30385128 -0.12579304 1.5855206
0.33044666 0.06551992 -1.3982958 -1.0656347 -1.0488843 -0.15287635 -0.11437976 -0.05856616
-0.013692569 0.20991702 -0.26509285 0.41055945 0.16168232 0.018631754 0.41459483 0.08046194
-0.22910541 0.59803396 -1.2045956 -0.023379471 0.012326365 -0.56629837 -0.09509684 0.45619118
0.4416919 0.4083478 0.35835382 -0.10037494 -0.29085737 0.5843859 -1.0661458 -1.112956
-5.869275 -0.085403934 0.17629074 -0.05655442 0.32130215 0.90566957 -0.03175558 -0.769186
-0.8594728 -1.9589806 1.4580377 -0.12481119 0.32800284 0.38284442 -1.7171959 -5.685904
0.17979121 0.0868383 0.08045734 -1.1223582 -0.9172827 0.15490124 -1.9521735 -0.3848054
-2.7830017 -2.6143312 -0.45302984 -0.23332691 -1.1220493 0.15707178 0.45278496 0.72263694
0.26918197 1.124011 -2.2784915 -1.9695135 -3.688344 -0.030767597 -2.149942 -5.852734
1.622454 0.6107152 0.6509785 -0.17415261 -2.022713 -1.0612122 -0.133644 0.47135404
-1.3048095 -0.73861736 0.35003403 -0.1439256 -0.17600001 -0.3358003 -1.465315 -7.384437
-0.34916827 -2.0609517 1.3643614 0.55024636 -7.3002305 -1.147589 -1.6222312 0.08201009
0.71434534 -1.2484103 -0.34964633 0.031273868 -0.3086052 -0.35785806 0.031082548 -0.31761298
0.57904905 -2.1969259 -6.9931726 0.261056 0.41055396 0.47869787 -2.0539916 0.8982584
0.14250371 -3.5644464 -1.3266895 -1.342292 -0.86721617 -5.419774 -2.5275578 -2.1849089
0.11637361 -2.4033442 1.9989928 -5.524833 -0.002563031 0.10960247 -0.7829493 -1.1040968
-0.07846872 2.1381116 -0.7689257 0.7194285 -4.0313883 -0.024872536 -6.141593 -1.9246262
-0.56262594 -4.666605 -0.13537471 0.17801169 -3.0054743 0.530129 -1.251577 -1.4682302
1.1247814 -0.35349002 -0.54369473 2.0141237 0.72719455 -0.42918524 -0.8902407 -0.66945803
-2.3564749 -6.384692 -0.1732974 -6.206853 0.41944394 -4.0557547 -2.6826744 -1.0266974
-1.9129586 0.0154438475 -0.0030527045 -0.7634695 -0.4211674 0.08465178 -2.3400893 -0.71134895
-0.20913701 -0.12709372 -0.26785 -0.57747877 -8.860308 0.028684635 -0.37800288 -2.9438863
-1.3531644 0.64028174 -0.7325076 -0.53643113 0.023744935 0.097404175 -1.7680309 -3.559857
-0.050008092 -0.8169811 -1.770439 -1.5338196 -5.8091493 -5.1637573 -0.79763615 0.5074291
-0.1475624 -2.1711984 -0.013604005 -0.51528263 -0.27764532 2.0662081 -4.747084 -2.260935
-2.007829 -0.3161884 -2.1909983 -7.5807133 1.2782791 -5.0524983 -1.2467895 -2.3021781
0.049725357 0.12650356 0.51444626 0.912793 -0.6875936 -0.35194406 -1.4837337 -0.5043363
-4.360975 -1.5921521 1.4857421 -8.87804 -1.0654713 -2.7154949 0.5368935 0.31313258
-3.886962 -0.40588233 -3.2633734 0.43292004 0.57435054 -1.1195295 -1.9243686 0.18597165
-2.4601831 -0.5479452 0.3714352 1.3926494 0.6098825 -0.5272209 -13.920825 -2.0438492
0.59027 0.39338166 -1.8903922 -3.4615872 -2.3243403 -0.6805515 -0.15252042 -0.24785307
00000000: 4367 a53d 99a5 59be d931 e4bd ae50 cf3d
00000010: fd31 24be 6592 9b3e e4cf 00be 57f2 ca3f
00000020: 4e30 a93e 4f2f 863d 5bfb b2bf b866 88bf
00000030: d741 86bf 9e8b 1cbe f03f eabd 12e3 6fbd
00000040: cc56 60bc 7df4 563e 40ba 87be d934 d23e
00000050: 0d90 253e 9fa1 983c c645 d43e 3bc9 a43d
00000060: 9c9a 6abe c118 193f 3030 9abf 4e86 bfbc
00000070: 86f4 493c eef8 10bf 22c2 c2bd e491 e93e
00000080: 7125 e23e f612 d13e 277a b73e 6091 cdbd
00000090: 42eb 94be 509a 153f 7777 88bf 5875 8ebf
000000a0: 1ad1 bbc0 42e8 aebd 8f85 343e 9ca5 67bd
000000b0: b781 a43e f6d9 673f 2412 02bd 60e9 44bf
000000c0: 6906 5cbf e0bf fabf fba0 ba3f 029d ffbd
000000d0: fdef a73e 2f04 c43e 13cd dbbf edf2 b5c0
000000e0: 301b 383e 47d8 b13d d1c6 a43d 6fa9 8fbf
000000f0: 0ad3 6abf 6e9e 1e3e d2e0 f9bf 3705 c5be
00000100: b31c 32c0 3451 27c0 87f3 e7be 40ed 6ebe
00000110: 509f 8fbf 6dd7 203e 6ed3 e73e bcfe 383f
00000120: 38d2 893e 98df 8f3f ced2 11c0 0519 fcbf
00000130: d40d 6cc0 540c fcbc a698 09c0 9949 bbc0
00000140: 93ac cf3f d557 1c3f 87a6 263f 1055 32be
00000150: 2174 01c0 cdd5 87bf f9d9 08be 5155 f13e
00000160: ff03 a7bf 0716 3dbf a937 b33e 3c61 13be
00000170: 5939 34be 04ee abbe 718f bbbf 4f4d ecc0
00000180: 2fc6 b2be a2e6 03c0 65a3 ae3f f2dc 0c3f
00000190: 7d9b e9c0 32e4 92bf 46a5 cfbf e8f4 a73d
000001a0: 56df 363f e9cb 9fbf d804 b3be 0719 003d
000001b0: 8001 9ebe 2c39 b7be d4a0 fe3c 2b9e a2be
000001c0: 8f3c 143f 6f9a 0cc0 12c8 dfc0 22a9 853e
000001d0: 2134 d23e e317 f53e 9974 03c0 43f4 653f
000001e0: 7eec 113e e41f 64c0 f6d0 a9bf 39d0 abbf
000001f0: e101 5ebf ca6e adc0 82c3 21c0 8cd5 0bc0
00000200: 4a55 ee3d 64d0 19c0 ffde ff3f 6fcb b0c0
00000210: 86f8 27bb 4377 e03d 5e6f 48bf 0b53 8dbf
00000220: 35b4 a0bd d2d6 0840 51d8 44bf 772c 383f
00000230: 2201 81c0 7dc1 cbbc ee87 c4c0 275a f6bf
00000240: 4108 10bf d454 95c0 ab9f 0abe b248 363e
00000250: b159 40c0 89b6 073f ad33 a0bf f8ee bbbf
00000260: d6f8 8f3f a5fc b4be 942f 0bbf 67e7 0040
00000270: 6c29 3a3f 2bbe dbbe d1e6 63bf 9a61 2bbf
00000280: 7cd0 16c0 664f ccc0 e074 31be 8a9e c6c0
00000290: 5bc1 d63e bec8 81c0 f0b0 2bc0 d26a 83bf
000002a0: d4db f4bf 3108 7d3c e20f 48bb bd72 43bf
000002b0: 41a3 d7be ea5d ad3d 06c4 15c0 f71a 36bf
000002c0: 0328 56be db24 02be a323 89be a6d5 13bf
000002d0: d2c3 0dc1 0afc ea3c 9889 c1be a268 3cc0
000002e0: 7e34 adbf 81e9 233f 9e85 3bbf 8d53 09bf
000002f0: bd84 c23c d77b c73d d64e e2bf b2d4 63c0
00000300: 49d5 4cbd ac25 51bf bf9d e2bf 3354 c4bf
00000310: 8de4 b9c0 803d a5c0 e231 4cbf e0e6 013f
00000320: 991a 17be eaf4 0ac0 55e3 5ebc 90e9 03bf
00000330: 8727 8ebe c13c 0440 1de8 97c0 29b3 10c0
00000340: 4580 00c0 72e3 a1be 5139 0cc0 3495 f2c0
00000350: a69e a33f 11ae a1c0 cc96 9fbf e356 13c0
00000360: d1ac 4b3d 268a 013e c0b2 033f cdac 693f
00000370: 2206 30bf 0332 b4be fcea bdbf 2f1c 01bf
00000380: 1b8d 8bc0 a4cb cbbf cc2c be3f 740c 0ec1
00000390: 5d61 88bf abca 2dc0 da71 093f ea52 a03e
000003a0: fcc3 78c0 cfcf cfbe 1cdb 50c0 b2a7 dd3e
000003b0: a308 133f be4c 8fbf b651 f6bf 5a6f 3e3e
000003c0: a473 1dc0 2346 0cbf c12c be3e 5642 b23f
000003d0: 4221 1c3f f3f7 06bf b3bb 5ec1 6dce 02c0
000003e0: ef1b 173f 5269 c93e 5ff8 f1bf a58a 5dc0
000003f0: fec1 14c0 a038 2ebf 502e 1cbe 32cd 7dbe

fc2.bias f4 [32]
2.026054 0.89135504 0.5016545 1.0220702 0.40631342 0.07889978 -0.2910936 1.0255907
-0.5834633 -0.5165757 -0.45211482 -0.28673694 -0.6212555 0.807209 -0.6316739 -0.1509115
-1.0566415 -0.1329025 -0.7217774 -0.45015323 -0.6263885 0.11004021 -0.0916709 -0.2537482
-0.00974141 -0.2573954 1.0882802 2.0796108 0.57486784 1.8421715 0.1435215 3.4280689
00000000: deaa 0140 d82f 643f 6e6c 003f 32d3 823f
00000010: 5008 d03e 3596 a13d 380a 95be 8e46 833f
00000020: da5d 15bf 4e3e 04bf 987b e7be 2fcf 92be
00000030: 9a0a 1fbf 40a5 4e3f 61b5 21bf 8b88 1abe
00000040: 0740 87bf 9817 08be 67c6 38bf 7c7a e6be
00000050: ff5a 20bf c35c e13d f4bd bbbd 49eb 81be
00000060: 6f9a 1fbc 54c9 83be c44c 8b3f 5818 0540
00000070: 8a2a 133f 47cc eb3f 4df7 123e 7b65 5b40

fc3.weight f4 [16, 32]
-0.070707135 3.2625394 5.5125017 7.50788 -15.096969 -6.4022903 -25.548647 2.6542265
-26.066391 -22.111536 -0.1556704 -13.779311 -24.223251 -8.09926 -7.6404924 -10.134136
-0.086770765 -0.05268497 -7.2159433 -5.2995167 -18.255285 -7.8414083 -22.907705 -14.35627
-15.330706 -22.287615 -0.10354988 3.4254909 2.1406617 6.3543797 -8.727383 2.847537
-0.0012211761 -0.0022875506 0.0017721741 0.00073103886 -0.002911215 -0.024243975 0.0027480018 -0.00082807336
-0.0011085853 -0.018226925 -0.028061723 -0.026907993 -0.0011243005 -0.0040061576 -0.02610051 -0.0045246785
-0.030098297 -0.0026981586 -0.002905619 -0.00012569537 -0.0014556549 5.2813022e-05 -8.078385e-05 -0.0011196829
-0.003466518 -0.02668384 -0.00086476 -0.005144415 -0.004065355 0.00043758657 -0.0030348732 -0.005571839
-0.0015418107 -0.0005572215 0.00227089 0.0024774359 -0.028230593 -0.028314639 -0.006211189 -0.001180987
-0.000745727 0.0005083408 -0.02744645 0.0013096626 -0.02818521 -0.00079625985 -0.03505767 -0.027236616
-0.021418434 -0.00039655808 -0.0009669615 -0.028618118 -0.001558563 -0.015095434 0.00018386682 -0.028790675
-0.0012595135 -0.0077351946 -0.0018477105 -0.0012517523 0.0007008971 -0.0019133864 -0.0026536954 -0.00074004894
2.77573 -2.1804185 -4.3981705 -2.7044249 -0.85786 -1.0636997 6.962729 -1.2053311
2.276075 0.33590552 1.7281096 4.4076347 0.24206583 -0.3518957 -0.8884132 0.58765495
-2.6263003 0.010251001 -4.067387 -0.21719828 4.0344253 0.27724862 6.082457 2.033179
5.4195433 0.8862879 -1.3985337 1.013711 -0.64851177 -1.131278 1.5698229 -0.66843647
0.098747194 -0.4713154 -1.5262302 -8.469039 0.338145 0.2626422 10.645164 -0.43624106
2.7354913 0.8224514 -0.37637296 -7.289587 1.5845011 1.1417112 0.55321956 -12.135442
0.066247426 -0.033562448 -9.181745 0.07073492 -1.3744774 1.8604578 6.0813046 -0.115160145
-1.8398616 -4.949467 0.5779289 0.19908412 -1.0845944 -1.4183528 -1.0389539 1.8000737
0.9272421 1.1051742 -3.0366566 0.31709632 -0.8648607 -4.9747505 0.3901455 0.9248901
0.22009271 0.13521689 0.62003136 5.308473 -3.1910179 -0.8865552 -0.12168525 6.207821
-1.0522085 0.13382028 5.705617 0.71889627 2.8749254 -0.4725223 -1.5104513 10.681612
3.9922223 0.04158762 -6.0957656 1.3279091 -0.12132283 1.1360289 5.708915 0.49672034
-0.4285477 2.9129975 5.9996824 7.344457 -14.368034 -6.138141 -25.157724 2.7778962
-23.497662 -20.7508 -0.09224811 -15.039995 -22.838772 -5.60942 -7.4833937 -9.381013
-9.369793 -0.037101146 -6.552421 -6.2530465 -18.196505 -7.5970078 -23.083002 -14.41174
-11.807007 -20.171957 -0.060587045 3.2159932 2.4213111 6.040627 -9.154311 2.6708896
1.0363328 5.872984 7.933895 7.8436475 -0.26417994 0.0315282 -10.067161 1.1628149
-8.078387 -5.334116 -0.3811137 4.782929 2.2512066 1.3834897 0.20986345 8.364897
-0.41010523 -0.001247426 10.66368 0.7101027 -10.91695 2.0839715 -7.2493577 -7.152125
-3.5968502 -6.834431 0.21236446 0.5729917 2.416843 1.7548726 -2.8063765 3.3190784
00000000: e7ce 90bd 72cd 5040 6a66 b040 8e40 f040
00000010: 2f8d 71c1 90df ccc0 a163 ccc1 d9de 2940
00000020: f887 d0c1 6de4 b0c1 1068 1fbe 0f78 5cc1
00000030: 38c9 c1c1 9296 01c1 ea7e f4c0 6c25 22c1
00000040: dfb4 b1bd 32cc 57bd 02e9 e6c0 a495 a9c0
00000050: d30a 92c1 d1ec fac0 fb42 b7c1 48b3 65c1
00000060: 924a 75c1 094d b2c1 f611 d4bd 3e3b 5b40
00000070: 9a00 0940 1457 cb40 5ca3 0bc1 0c3e 3640
00000080: df0f a0ba bbea 15bb 4c48 e83a 30a3 3f3a
00000090: 15ca 3ebb 4d9b c6bc d217 343b 1013 59ba
000000a0: f34d 91ba a250 95bc b3e1 e5bc 276e dcbc
000000b0: 445d 93ba 1646 83bb bdd0 d5bc c143 94bb
000000c0: b490 f6bc 97d3 30bb 336c 3ebb 18cd 03b9
000000d0: accb beba 8d83 5d38 806a a9b8 53c2 92ba
000000e0: 852e 63bb 1298 dabc 10b1 62ba 7b92 a8bb
000000f0: ab36 85bb e06b e539 b9e4 46bb f993 b6bb
00000100: 9516 caba 8012 12ba 36d3 143b 7a5c 223b
00000110: d843 e7bc 1af4 e7bc 3b87 cbbb 59cb 9aba
00000120: e47c 43ba 2c42 053a 61d7 e0bc fca8 ab3a
00000130: abe4 e6bc 18bc 50ba a298 0fbd 531f dfbc
00000140: b675 afbc 20e9 cfb9 b07b 7dba 8b70 eabc
00000150: b248 ccba d752 77bc 60cc 4039 6cda ebbc
00000160: 4316 a5ba 8477 fdbb e02e f2ba d611 a4ba
00000170: 68bc 373a 98ca faba 9fe9 2dbb d8ff 41ba
00000180: 8fa5 3140 fa8b 0bc0 d0bd 8cc0 4c15 2dc0
00000190: b79c 5bbf 5027 88bf adce de40 4a48 9abf
000001a0: 36ab 1140 cffb ab3e b232 dd3f 580b 8d40
000001b0: 1be0 773e ac2b b4be 0c6f 63bf 8e70 163f
000001c0: 4e15 28c0 d1f3 273c 0928 82c0 3a69 5ebe
000001d0: 031a 8140 88f3 8d3e 7da3 c240 9b1f 0240
000001e0: e66c ad40 c4e3 623f 2703 b3bf 48c1 813f
000001f0: de04 26bf b8cd 90bf f5ef c83f a71e 2bbf
00000200: f83b ca3d 4150 f1be 835b c3bf 2f81 07c1
00000210: 5721 ad3e 0a79 863e 9752 2a41 fd5a dfbe
00000220: 4a12 2f40 2d8c 523f f5b3 c0be 4c44 e9c0
00000230: efd0 ca3f 9823 923f cc9f 0d3f c52a 42c1
00000240: bbac 873d c778 09bd 6de8 12c1 78dd 903d
00000250: e0ee afbf 7b23 ee3f 0c9a c240 15d9 ebbd
00000260: 9680 ebbf 0962 9ec0 26f3 133f b5dc 4b3e
00000270: fdd3 8abf 968c b5bf 71fc 84bf d168 e63f
00000280: bd5f 6d3f 5976 8d3f 9558 42c0 735a a23e
00000290: 8367 5dbf 2831 9fc0 27c1 c73e 99c5 6c3f
000002a0: fc5f 613e 4c76 0a3e 60ba 1e3f 03df a940
000002b0: a339 4cc0 48f5 62bf 1e36 f9bd 78a6 c640
000002c0: c5ae 86bf 2f08 093e 6a94 b640 9609 383f
000002d0: c7fe 3740 71ee f1be 7856 c1bf e2e7 2a41
000002e0: 9280 7f40 c857 2a3d 8310 c3c0 edf8 a93f
000002f0: 1b78 f8bd 6569 913f 6faf b640 2152 fe3e
00000300: 9b6a dbbe 8d6e 3a40 66fd bf40 cb05 eb40
00000310: 78e3 65c1 a76b c4c0 0543 c9c1 0dc9 3140
00000320: 36fb bbc1 a301 a6c1 94ec bcbd d2a3 70c1
00000330: ceb5 b6c1 5e80 b3c0 f677 efc0 a118 16c1
00000340: acea 15c1 5ff7 17bd 6fad d1c0 f518 c8c0
00000350: 7192 91c1 b01a f3c0 fda9 b8c1 7d96 66c1
00000360: 80e9 3cc1 2b60 a1c1 1f2a 78bd d5d2 4d40
00000370: c3f6 1a40 d14c c140 0f78 12c1 dbef 2a40
00000380: 8ea6 843f 7cef bb40 78e2 fd40 29ff fa40
00000390: 9842 87be b723 013d 1713 21c1 1ed7 943f
000003a0: 1341 01c1 14b1 aac0 5621 c3be c10d 9940
000003b0: c513 1040 3116 b13f 72e6 563e 9ed6 0541
000003c0: 50f9 d1be ac80 a3ba 6f9e 2a41 4ac9 353f
000003d0: d4ab 2ec1 ca5f 0540 bdfa e7c0 35de e4c0
000003e0: cb32 66c0 a9b3 dac0 1276 593e 96af 123f
000003f0: 8ead 1a40 aa9f e03f ac9b 33c0 c86b 5440

fc3.bias f4 [16]
7.322466 -0.060709223 -0.16394512 12.496897 -8.8766165 -6.952804 2.413873 16.06189
10.7407255 -0.1742646 18.48121 -1.7163417 -2.5995545 10.835651 -7.3851647 23.60991
00000000: a451 ea40 3caa 78bd 3be1 27be 4af3 4741
00000010: 9f06 0ec1 5f7d dec0 e57c 1a40 c07e 8041
00000020: 03da 2b41 6b72 32be 85d9 9341 16b1 dbbf
00000030: 1a5f 26c0 d45e 2d41 4553 ecc0 18e1 bc41

fc4.weight f4 [1, 16]
26.980373 0.027510818 0.017561734 6.5970273 -12.092186 -9.247554 27.117338 8.840008
29.092731 0.026436424 10.286347 -7.644023 -12.196092 26.876078 -11.688576 8.13687
00000000: ced7 d741 5e5e e13c a0dd 8f3c d91a d340
00000010: 9879 41c1 fbf5 13c1 4ff0 d841 ac70 0d41
00000020: eabd e841 3391 d83c e194 2441 d69b f4c0
00000030: 3123 43c1 3502 d741 6804 3bc1 9f30 0241
