checkpoint_0_critic.pth (torch_old, 19235 bytes, 11 tensors)

fcs1.weight f4 [64, 24]
0	0xbd9404b1	-0.07227457
1	0x3e822d9e	0.25425428
2	0xbb6d81f4	-0.0036240788
3	0xbe72702b	-0.23675601
4	0xbd4a7ede	-0.049437396
5	0x3d5f5b31	0.054530326
6	0x3bd61984	0.0065338034
7	0xbe864633	-0.26225433
8	0x3ee2fd4e	0.4433388
9	0x3d725b02	0.059168823
10	0x3c95c2d7	0.018281383
11	0xbeb13bcb	-0.3461593
12	0xbee87c08	-0.45407128
13	0x3e1ca3b0	0.15296817
14	0xbd780671	-0.060553018
15	0xbeea5e6f	-0.45775172
16	0x3fc44fa1	1.5336801
17	0xbe9a5388	-0.30141854
18	0xbd3c914a	-0.046036996
19	0x3d581dc9	0.05276278
20	0xbf2aded4	-0.6674626
21	0x3e286245	0.16443737
22	0x3dcdd62a	0.10050614
23	0xbce3eabf	-0.027821897
24	0x3edc6f9d	0.43053904
25	0xbf9f4f58	-1.2446089
26	0x3cd586cd	0.026065255
27	0x3cd084ec	0.025454007
28	0xbed0832b	-0.40725073
29	0x3f2b75cb	0.6697661
30	0x3ca27347	0.01983036
31	0xbd380b17	-0.04493245
32	0x3f10c5d6	0.56551874
33	0xbf65f85a	-0.8983208
34	0x3cf48206	0.029847156
35	0x3dd78dbd	0.10525081
36	0x3dccdc13	0.10002913
37	0xbe4da264	-0.20081478
38	0xbd9dac98	-0.07698935
39	0x3d973dc3	0.07384827
40	0x3fc9b692	1.5758841
41	0xbf880c3b	-1.0628732
42	0x3db7be57	0.08971851
43	0xbf1823b5	-0.59429485
44	0x3f794f5a	0.97386706
45	0xbf8ceb42	-1.1009295
46	0xbd324200	-0.043519974
47	0xbf0606f7	-0.5235438
48	0x3df06c56	0.117394134
49	0x3f8ca686	1.0988319
50	0xbc69e229	-0.014275112
51	0xbe5bf31d	-0.21479459
52	0x3d1b7a90	0.03795868
53	0x3e272562	0.16322854
54	0x3c8a2198	0.016861722
55	0xbd41aaae	-0.047281913
56	0x3ea6c181	0.32569507
57	0x3f98bcff	1.1932677
58	0x3ce1a71f	0.02754551
59	0x3de5245f	0.11188578
60	0xbe51f2f0	-0.2050283
61	0xbbe86690	-0.0070923045
62	0xbcc2c5cf	-0.023775963
63	0x3d7f0c15	0.06226738
64	0x3f305315	0.68876773
65	0x3fbf8ba9	1.4964496
66	0x3cb751e1	0.02237791
67	0x3eae6776	0.3406331
68	0x3f950f75	1.1645342
69	0xbf3d8a34	-0.74039006
70	0xbc8fa69e	-0.017535504
71	0x3ecc3696	0.39885396
72	0x3c737e76	0.014861694
73	0x3ef63964	0.4809066
74	0xbda86369	-0.08222086
75	0x3cbfd0d4	0.023415007
76	0x3f999ad1	1.2000371
77	0xbdb71466	-0.089394376
78	0x3db291e1	0.087192304
79	0x3cb5dc46	0.022199761
80	0xbd64cd03	-0.055859577
81	0x3ee9ca0e	0.45661968
82	0xb9dfa6da	-0.0004265819
83	0x3bf2dae0	0.007411346
84	0x3dd24b80	0.10268307
85	0x3e4b2fa0	0.19842386
86	0x3bd7114c	0.0065633412
87	0xbc67c283	-0.014145496
88	0xbd95fb94	-0.07323375
89	0xbe6cec68	-0.23137057
90	0x3dec71ba	0.11545129
91	0x3d9ce398	0.076605976
92	0xbfd46c04	-1.6595464
93	0xbeeb6858	-0.45978045
94	0xbdf35d40	-0.118830204
95	0xbdd6478a	-0.10462864
96	0xbd9472ea	-0.072484806
97	0x3f9e38d8	1.2361097
98	0x3b2780d2	0.002555896
99	0x3f749a48	0.95547915
100	0xbe273032	-0.16326979
101	0xbe2f42f2	-0.17115381
102	0xbccd6793	-0.025073802
103	0x3f76c09a	0.96387637
104	0x3e9b3483	0.303135
105	0x3fbb6448	1.4639978
106	0xbcb657fa	-0.022258747
107	0x3e0a2de1	0.13494064
108	0xbea5b191	-0.32362035
109	0xbf76a6a6	-0.96348035
110	0x3cbe9f1c	0.023269229
111	0x3e2e3153	0.17011003
112	0x3f3009ef	0.6876516
113	0x3fa2886c	1.2697883
114	0x3d9018b3	0.07035961
115	0xbea37173	-0.31922492
116	0xbf047720	-0.5174427
117	0xbf9e79f4	-1.2380967
118	0xbd120b07	-0.035655048
119	0xbe9061eb	-0.28199705
120	0x3dd9e7cf	0.10639917
121	0x3f26d849	0.65173775
122	0xbcb9e6ce	-0.022693064
123	0xbe00dcc7	-0.1258422
124	0x3dbc9856	0.09208743
125	0x3d8410ed	0.06448541
126	0x3ba0e17e	0.0049096933
127	0xbe8fbde7	-0.28074571
128	0x3d902f6f	0.07040297
129	0x3f0767f4	0.52892995
130	0xbd6fc2c6	-0.05853536
131	0x3f132b4b	0.57487935
132	0x3ecf883f	0.40533635
133	0xbcdda08f	-0.0270541
134	0x3d0749dc	0.033029422
135	0x3f237ef9	0.6386562
136	0xbe57df2b	-0.21081226
137	0x3f02ec4a	0.511418
138	0xbdffe971	-0.12495697
139	0x3f2dce96	0.6789335
140	0x3ec7b4a4	0.39005005
141	0x3e09ed59	0.13469447
142	0x3ba0713e	0.004896312
143	0x3f123d30	0.57124615
144	0x3db2a25f	0.08722376
145	0xbed15aa7	-0.40889475
146	0x3d2049b6	0.039132796
147	0x3cbeaa65	0.02327461
148	0xbe9bdaaf	-0.3044028
149	0xbeded0fc	-0.43518817
150	0xbd01b689	-0.03166822
151	0xbd1376ba	-0.0360019
152	0xbcb00294	-0.021485604
153	0xbe889893	-0.26678905
154	0xba94cb07	-0.0011352011
155	0x3f450be7	0.76971287
156	0x3f0895c1	0.53353506
157	0xbf1bf454	-0.6091969
158	0x3c051bb3	0.00812428
159	0x3f3a9d71	0.72896487
160	0xbd7428ae	-0.059609108
161	0x3e8a0747	0.26958677
162	0xbd1e5e25	-0.038664002
163	0xbf34b7bd	-0.7059286
164	0x3e876c46	0.26449794
165	0x3fbaf4e1	1.4605981
166	0x3d805dab	0.06267866
167	0xbf62542f	-0.88409704
168	0xbdaf8f56	-0.08572261
169	0x3f016d5d	0.505575
170	0x3c4b1c19	0.012396836
171	0xbd469b99	-0.048488233
172	0xbdafd93a	-0.085863546
173	0xbf822cd8	-1.0169935
174	0xbca1ae70	-0.019736499
175	0x3d1eaf61	0.038741473
176	0xbc57c007	-0.0131683415
177	0x3f036e2c	0.51339984
178	0x3c8a2c2f	0.016866772
179	0xbc932791	-0.017963203
180	0xbeb6a57f	-0.35673138
181	0xbf1d04af	-0.6133527
182	0xbbc550f4	-0.0060216133
183	0x3df26884	0.11836341
184	0x3d8ac383	0.06775572
185	0x3f73fead	0.9531048
186	0xbd3f30f1	-0.046677534
187	0x3e1317ae	0.14364502
188	0x3f7c8c60	0.98651695
189	0x3fc63742	1.5485613
190	0xbd7694c6	-0.060200475
191	0x3def18ab	0.11674627
192	0xbdfc000f	-0.12304699
193	0xbf9f5285	-1.2447058
194	0xbd5f4c31	-0.05451602
195	0x3db3700e	0.08761607
196	0xbe7f384a	-0.24923816
197	0x3d706e6d	0.05869906
198	0x3d8c18f4	0.06840697
199	0x3e239b7f	0.15977286
200	0x3d59a4fb	0.053135853
201	0xbf74a94b	-0.9557082
202	0x3a9ced49	0.0011972572
203	0x3e7ee8a6	0.24893436
204	0x3e94f636	0.29094094
205	0xbf33a060	-0.7016659
206	0xbd17a05d	-0.03701817
207	0x3eb28239	0.34864977
208	0x3ea1c6c9	0.31596974
209	0xbf099206	-0.5373844
210	0xbd6ccf45	-0.057814855
211	0x3ed847ea	0.42242366
212	0x3e9b4b89	0.30331066
213	0xbb4ecff6	-0.003155706
214	0x3b0577ba	0.0020365552
215	0x3ec8ba72	0.39204746
216	0x3d6130c4	0.054978147
217	0xbe1bbbef	-0.1520841
218	0x3cd034b2	0.025415752
219	0xbd5194e3	-0.05116738
220	0x3cceb908	0.025234714
221	0x3ebe99bf	0.37226674
222	0xbcf78a2c	-0.030217253
223	0xbd3c9381	-0.04603911
224	0x3d645bd2	0.05575163
225	0xbe37843d	-0.17921539
226	0x3dc499d7	0.09599655
227	0x3d9391a4	0.07205513
228	0xbe5d20f5	-0.21594603
229	0x3ed9f107	0.42566702
230	0xbde0e5cd	-0.10981331
231	0xbd40010f	-0.04687601
232	0x3d0fddf8	0.035123795
233	0x3e68825c	0.22705978
234	0xbcfc615f	-0.030808149
235	0x3f0f409f	0.5595798
236	0x3f8289c8	1.0198298
237	0xc0331d57	-2.7986658
238	0x3d365982	0.044518955
239	0x3f069c39	0.52582127
240	0xbe176df6	-0.1478804
241	0x3fd4ccc2	1.6624987
242	0x3df0610c	0.1173726
243	0xbe407dcd	-0.18797989
244	0x3ebf3426	0.37344474
245	0xbe45cc78	-0.1931628
246	0xbddddfba	-0.10833688
247	0xbe9f3425	-0.3109447
248	0x3db445da	0.08802386
249	0x3f0a5a1e	0.5404376
250	0x3b820f98	0.003969144
251	0xbece700f	-0.4031987
252	0x3f35c798	0.7100768
253	0x3f542ce6	0.8288101
254	0xbb9b6627	-0.004742402
255	0xbeb81745	-0.35955253

fcs1.bias f4 [64]
0	0xbf194eb9	-0.59885746
1	0xbdf7d40a	-0.1210099
2	0x3fa0220c	1.251039
3	0x3f978353	1.1836952
4	0x3ea5d235	0.32386938
5	0xc0075999	-2.1148436
6	0x3f4c5656	0.7981924
7	0xbfc64316	-1.5489223
8	0xbdb1a9ef	-0.086749904
9	0x3f3ddcd3	0.74165076
10	0xbefab67c	-0.4896735
11	0x3bec4d62	0.007211373
12	0xbf553d45	-0.83296615
13	0xbd915acf	-0.070973985
14	0xc01f9245	-2.4933026
15	0xbf11eb1e	-0.56999385
16	0x3c0a1bc4	0.008429471
17	0x3f4919ce	0.78555
18	0xbf21d1c0	-0.6321068
19	0x3f685695	0.90757114
20	0x3f8131cd	1.0093323
21	0xbf43aa35	-0.7643159
22	0x3dfc8d79	0.12331671
23	0x3fa3bec6	1.2792594
24	0xbf3ebeb8	-0.74509764
25	0x3f3b07e7	0.73058933
26	0xc044b7d2	-3.0737195
27	0x3fd6d03b	1.6782297
28	0xbea9b390	-0.33144808
29	0xbf596000	-0.8491211
30	0x3fd46da9	1.6595966
31	0xbeaecdee	-0.34141487
32	0xc0019360	-2.02462
33	0xbd489de0	-0.048978686
34	0xc04f4a16	-3.2388968
35	0x3f4dd940	0.8040962
36	0xc0034455	-2.0510457
37	0xbe6a59a1	-0.22885753
38	0xbe80a90f	-0.2512898
39	0x3e026a42	0.12735847
40	0xbf2cf620	-0.67563057
41	0xbf9baa5e	-1.2161367
42	0x3f8820b2	1.0634978
43	0x3ebd25c3	0.36942872
44	0xbfaccefd	-1.3500668
45	0x3f6a25e0	0.9146404
46	0x3fbf0d82	1.4925997
47	0xbea39826	-0.31952018
48	0x3f820e2d	1.0160576
49	0xbf0d0541	-0.5508614
50	0x3e4cb76f	0.1999185
51	0x3eb25237	0.3482835
52	0xbf2df7c0	-0.6795616
53	0xbf37d690	-0.7181177
54	0xbe60529f	-0.21906517
55	0xbf90ae2d	-1.1303154
56	0xbf3e42a1	-0.7432042
57	0xbf6b07f5	-0.91809016
58	0xbf315eb7	-0.6928515
59	0x40217d2c	2.523265
60	0xbfb44c58	-1.4085798
61	0x3f2bfba0	0.67180824
62	0xbf317c72	-0.69330513
63	0xbf94b975	-1.1619097

bn1.weight f4 [24]
0	0x3e43ece0	0.1913333
1	0x3ed187ce	0.40923923
2	0x3e326938	0.1742295
3	0x3f560602	0.8360292
4	0x3ee634a6	0.44962043
5	0x3f3137b3	0.69225615
6	0x3f0d1cb2	0.5512191
7	0x3f64e959	0.8941856
8	0x3f6f2948	0.93422365
9	0x3e8850c6	0.26624125
10	0x3efd8b32	0.4952026
11	0x3f53a947	0.8268017
12	0x3f21ca7e	0.63199604
13	0x3f0a2ec3	0.539776
14	0x3ed8a1f8	0.42311072
15	0x3f7d7f68	0.9902253
16	0x3eebf50e	0.460854
17	0x3f0d9fff	0.5532226
18	0x3f6e9c3b	0.9320714
19	0x3f7ef4fe	0.9959258
20	0x3f5f9319	0.8733383
21	0x3f3574c1	0.7088128
22	0x3f7d18ed	0.9886616
23	0x3f4d5860	0.80212975

bn1.bias f4 [24]
0	0x00000000	0.0
1	0x00000000	0.0
2	0x00000000	0.0
3	0x00000000	0.0
4	0x00000000	0.0
5	0x00000000	0.0
6	0x00000000	0.0
7	0x00000000	0.0
8	0x00000000	0.0
9	0x00000000	0.0
10	0x00000000	0.0
11	0x00000000	0.0
12	0x00000000	0.0
13	0x00000000	0.0
14	0x00000000	0.0
15	0x00000000	0.0
16	0x00000000	0.0
17	0x00000000	0.0
18	0x00000000	0.0
19	0x00000000	0.0
20	0x00000000	0.0
21	0x00000000	0.0
22	0x00000000	0.0
23	0x00000000	0.0

bn1.running_mean f4 [24]
0	0x00000000	0.0
1	0x00000000	0.0
2	0x00000000	0.0
3	0x00000000	0.0
4	0x00000000	0.0
5	0x00000000	0.0
6	0x00000000	0.0
7	0x00000000	0.0
8	0x00000000	0.0
9	0x00000000	0.0
10	0x00000000	0.0
11	0x00000000	0.0
12	0x00000000	0.0
13	0x00000000	0.0
14	0x00000000	0.0
15	0x00000000	0.0
16	0x00000000	0.0
17	0x00000000	0.0
18	0x00000000	0.0
19	0x00000000	0.0
20	0x00000000	0.0
21	0x00000000	0.0
22	0x00000000	0.0
23	0x00000000	0.0

bn1.running_var f4 [24]
0	0x3f800000	1.0
1	0x3f800000	1.0
2	0x3f800000	1.0
3	0x3f800000	1.0
4	0x3f800000	1.0
5	0x3f800000	1.0
6	0x3f800000	1.0
7	0x3f800000	1.0
8	0x3f800000	1.0
9	0x3f800000	1.0
10	0x3f800000	1.0
11	0x3f800000	1.0
12	0x3f800000	1.0
13	0x3f800000	1.0
14	0x3f800000	1.0
15	0x3f800000	1.0
16	0x3f800000	1.0
17	0x3f800000	1.0
18	0x3f800000	1.0
19	0x3f800000	1.0
20	0x3f800000	1.0
21	0x3f800000	1.0
22	0x3f800000	1.0
23	0x3f800000	1.0

fc2.weight f4 [32, 66]
0	0xbe982180	-0.29713058
1	0x3e7c3dee	0.24633
2	0xbdf1eff7	-0.11813348
3	0xbe5ec101	-0.21753313
4	0x3e184f9c	0.14874119
5	0x3cd77d17	0.026304765
6	0x3ea80a56	0.32820386
7	0xbebca094	-0.3684126
8	0x3e67a8a4	0.22622925
9	0x3ee9ea4b	0.45686564
10	0xbd87c5e2	-0.0662954
11	0xbd2b30cc	-0.041794583
12	0xbd3511d4	-0.044206455
13	0xbf1f8f34	-0.62327886
14	0x3eb3a0e2	0.3508368
15	0x3e7e1838	0.24813926
16	0x3dfc3910	0.12315571
17	0xbdcc15fc	-0.09965131
18	0x3e36c686	0.17849168
19	0xbf9bf51c	-1.2184176
20	0xbf4f99fa	-0.81094325
21	0x39697023	0.00022262386
22	0x3eb03e87	0.34422705
23	0x3e2a31ac	0.16620511
24	0x3e4a50bf	0.19757365
25	0xbe0c8416	-0.13722262
26	0x3f06e092	0.5268642
27	0xbe41f1c3	-0.18939881
28	0x3e4ae1b5	0.19812663
29	0x3e8e664f	0.2781243
30	0x3dd3a73f	0.10334634
31	0xbd0a32d2	-0.033739872
32	0xbe7b1d28	-0.24522841
33	0x3dac1949	0.0840326
34	0x3e0ab55a	0.13545743
35	0xbe6509f6	-0.22367081
36	0xbe47f16f	-0.19525693
37	0xbe6dc857	-0.23220955
38	0xbd89feed	-0.06738076
39	0x3e80f097	0.25183555
40	0xc0212c61	-2.5183337
41	0x3ec01138	0.37513137
42	0xbf6f2974	-0.9342263
43	0x3f80077a	1.0002282
44	0xbe79bef3	-0.24389248
45	0xbd59803f	-0.05310082
46	0x3d14c8b3	0.036324214
47	0xbe81300a	-0.25231963
48	0xbd90c159	-0.07068128
49	0x3e67825c	0.22608322
50	0xbf207847	-0.6268353
51	0xbd9c00e1	-0.07617355
52	0xbd8ae6bd	-0.06782291
53	0xbfc5ca18	-1.5452299
54	0xbeae8ca5	-0.34091678
55	0xbe1d0864	-0.15335232
56	0x3daaa471	0.08332146
57	0x3eac8f65	0.3370315
58	0xbe22c7ec	-0.15896577
59	0xb8d90944	-0.00010349092
60	0xbe388a78	-0.18021572
61	0xbeadd701	-0.33953097
62	0xbdde3bb2	-0.1085123
63	0x3eb4f933	0.35346374
64	0x3e8c8fa3	0.27453336
65	0xbe03a20a	-0.12854782
66	0x3dd02388	0.10163027
67	0xbe6f5e60	-0.23375845
68	0x3e4cfa73	0.20017414
69	0xbe8b254c	-0.27176893
70	0xbc75e399	-0.015007877
71	0x3e28fc30	0.16502452
72	0xbf0d5df0	-0.5522146
73	0xbe933174	-0.28748667
74	0xbd93f650	-0.07224715
75	0x3ea386db	0.31938824
76	0xbe93a525	-0.28836933
77	0xbf8de893	-1.1086601
78	0x3deb5848	0.11491448
79	0xbe04d1d1	-0.12970664
80	0x3ec55971	0.385448
81	0xbf2a5891	-0.6654139
82	0x3d561262	0.052263625
83	0x3e2d7c17	0.16941868
84	0xbe87cc49	-0.26523045
85	0x3e67518c	0.22589701
86	0x3f0bb723	0.5457632
87	0xbab924fd	-0.0014125403
88	0xbea5243f	-0.32254216
89	0xbded7c43	-0.11595967
90	0x3f0b3e60	0.5439205
91	0x3de9cbd9	0.11415834
92	0xbf32244f	-0.6958665
93	0x3e9cdb46	0.30636042
94	0xbd55d1ef	-0.05220216
95	0xbe25570e	-0.1614649
96	0x3f661fa2	0.8989202
97	0xbe40722e	-0.18793556
98	0x3e5e87cf	0.21731494
99	0xbee1b5a6	-0.440839
100	0xbd030dcc	-0.03199558
101	0xbdb0bb2a	-0.08629449
102	0xbeb14bb8	-0.3462808
103	0x3e8322aa	0.25612384
104	0xbdfd2da6	-0.123622224
105	0xc03356cb	-2.8021724
106	0xbdc0e708	-0.09419066
107	0x3eb070bf	0.34461018
108	0x3d1d537a	0.038409688
109	0xbf33aefe	-0.7018889
110	0xbdae0c9b	-0.08498498
111	0xbeba2d59	-0.36362723
112	0x3d793a1c	0.060846433
113	0x3f10aaae	0.56510437
114	0x3e91c117	0.28467628
115	0x3ea14ccc	0.31503904
116	0x3ee97570	0.4559741
117	0x3de0ac90	0.10970414
118	0xbe8328fa	-0.256172
119	0x3eef0ed2	0.46690995
120	0xbda82451	-0.08210052
121	0xbdb7153e	-0.089395985
122	0xbe96db5e	-0.2946424
123	0x3f237e2c	0.638644
124	0xbdd82b4c	-0.10555133
125	0xbe6201d7	-0.22071014
126	0x3e97241c	0.29519737
127	0x3ec288ec	0.37995088
128	0x3ebb2ea8	0.36559033
129	0xbf249514	-0.64289975
130	0xbe95a491	-0.29227117
131	0x3df163f8	0.11786646
132	0xbe310f15	-0.1729091
133	0x3e670678	0.22561061
134	0xbe991c60	-0.2990446
135	0xbfa07573	-1.2535843
136	0x3e93511d	0.28772822
137	0x3e9d5b65	0.3073379
138	0xbf3f472f	-0.7471799
139	0x3e3989f9	0.18119039
140	0x3e552c9a	0.20817795
141	0x3edf34e5	0.43595043
142	0x3f685e01	0.9076844
143	0xbf1554fa	-0.5833279
144	0x3e8a401a	0.2700203
145	0xbf43590e	-0.7630776
146	0x3e8d2129	0.27564362
147	0xbdac4aa6	-0.084126756
148	0xbf9980e0	-1.1992455
149	0xbea0582b	-0.31317267
150	0xbca5612e	-0.02018794
151	0xbe0d3ecf	-0.13793491
152	0x3e916dfd	0.28404227
153	0xbd6f2deb	-0.0583934
154	0xbf023863	-0.5086729
155	0xbeb4c27b	-0.35304627
156	0x3e45173c	0.19247144
157	0x3d4c39b8	0.049859732
158	0xc0126a0a	-2.287722
159	0x3e894cc6	0.26816386
160	0xbedd3bbb	-0.43209633
161	0x3eb1db7e	0.34737772
162	0x3e05a5af	0.13051485
163	0xbf716b9f	-0.9430484
164	0xbf2f4a8b	-0.6847312
165	0xbf0c336b	-0.5476596
166	0xbf1113f7	-0.5667109
167	0xbeb7986a	-0.3585847
168	0x3d9f815f	0.077883475
169	0x3ed1305e	0.40857214
170	0xbde326e0	-0.11091399
171	0xbf8a161e	-1.0788
172	0xbeea1fd9	-0.45727423
173	0xbf53fb8e	-0.82805717
174	0xbec3ec22	-0.38266093
175	0x3efc0a6c	0.492267
176	0xbfc97574	-1.5738969
177	0xbf494b4b	-0.7863051
178	0xbf511998	-0.8167968
179	0xbec99b36	-0.3937623
180	0xbfa25ee1	-1.2685205
181	0xbeb61ffe	-0.35571283
182	0x3d3255e4	0.043538943
183	0x3f24797f	0.6424789
184	0xbf13ec20	-0.57782173
185	0x3e980d1b	0.296975
186	0xbf0b629b	-0.54447335
187	0x3db03ded	0.086055614
188	0xbef0606b	-0.4694856
189	0x3f155328	0.5833001
190	0x3ea39995	0.3195311
191	0xbe4a14d5	-0.1973451
192	0xbe27c51f	-0.1638379
193	0xbf5ea5ae	-0.8697156
194	0xbe896733	-0.26836547
195	0xbfad9ef2	-1.3564131
196	0x3ebc4a7a	0.3677557
197	0x3f52c92b	0.8233821
198	0xbdefb33b	-0.117041074
199	0x3f524265	0.8213256
200	0xbf6dccfa	-0.92890894
201	0xbe25505b	-0.16143934
202	0x3e6c3d48	0.23070252
203	0xbdf871ef	-0.12131106
204	0xbf46c8d4	-0.7765019
205	0xbf2be0ad	-0.67139703
206	0x3d8e042c	0.069343895
207	0x3dee45cf	0.11634409
208	0x3e0e9632	0.13924482
209	0xbf625088	-0.8840413
210	0x3e4c5eab	0.19957988
211	0xbfa1cf1a	-1.2641327
212	0x3d94f2ca	0.07272871
213	0x3e2ac1e7	0.1667553
214	0xbee0f11e	-0.43933958
215	0xbe2bf8a2	-0.16794065
216	0xbdd35215	-0.1031839
217	0x3e8fc0b0	0.28076696
218	0x3e8c7ae0	0.27437496
219	0xbf0d5db3	-0.552211
220	0xbf9c80e3	-1.2226833
221	0x3bcc71ec	0.0062391665
222	0x3db6811f	0.08911347
223	0xbf2b2957	-0.66859955
224	0xbe5a8765	-0.21340711
225	0xbe68dabb	-0.22739689
226	0xbf0503dd	-0.5195902
227	0xc0016dfe	-2.0223384
228	0xbdc97b34	-0.09837952
229	0xbfd0abf3	-1.6302475
230	0xbdd5b638	-0.10435146
231	0x3da9446f	0.08265006
232	0xbd102062	-0.035187133
233	0xbe8ad69a	-0.27116853
234	0x3e38987e	0.18026921
235	0xbc753eca	-0.014968583
236	0xbf42eb1f	-0.76140016
237	0xbf598e9c	-0.8498323
238	0xbe49d39d	-0.1970963
239	0x3cf20228	0.029542044
240	0xbf85be4d	-1.04487
241	0xbe1cc08c	-0.15307826
242	0xbf87cac5	-1.0608755
243	0xbedc43ee	-0.43020576
244	0x3ebd4a70	0.36970854
245	0x3ed2254e	0.41044086
246	0xbfb447f7	-1.4084462
247	0x3e88ee9a	0.2674454
248	0xbe8f567d	-0.27995673
249	0x3e811393	0.25210246
250	0xbe601164	-0.21881634
251	0x3cc10af7	0.023564799
252	0xbd8efbc0	-0.06981611
253	0xbe108c28	-0.14115965
254	0xbf3af57d	-0.73030835
255	0x3e907cb1	0.28220132

fc2.bias f4 [32]
0	0xbf3e9487	-0.74445385
1	0x3e10eba5	0.14152391
2	0x3f3b9f87	0.73290294
3	0xbecba5e9	-0.39775017
4	0x3e332292	0.17493656
5	0x3ea4a98c	0.32160604
6	0x3f08a2b7	0.53373283
7	0x3eea44f3	0.4575573
8	0x3f146c80	0.5797806
9	0xbe8556ac	-0.26042688
10	0xbf8f3da9	-1.1190692
11	0x3ff4fa56	1.9138896
12	0x3e3f3e3f	0.18676089
13	0xbe794a30	-0.24344707
14	0xc031a149	-2.775469
15	0x3f892eda	1.0717423
16	0x3e8723ba	0.26394445
17	0x3e6f4f07	0.2336999
18	0x3eec33d9	0.46133307
19	0xbd458bd7	-0.048229065
20	0x3ecac234	0.3960129
21	0x3e2b16f2	0.16707972
22	0x3f0cd0f1	0.5500632
23	0x3d8d8fda	0.06912203
24	0xbef89008	-0.48547387
25	0x3f0526c9	0.52012306
26	0x3f74108a	0.95337737
27	0x3f5b011f	0.85548586
28	0x3e41de7b	0.18932526
29	0x3d42b381	0.04753447
30	0xbebaacc9	-0.3645995
31	0xbb289d20	-0.002572842

fc3.weight f4 [16, 32]
0	0x3e747444	0.23872477
1	0x3e101350	0.14069867
2	0xbdf0d48d	-0.11759291
3	0x3efecfff	0.49768063
4	0xbec98120	-0.39356327
5	0xbe88d631	-0.26725915
6	0xbe0b4648	-0.13601029
7	0x3d371f89	0.04470781
8	0xbef5e445	-0.48025718
9	0x3ed1f80f	0.41009566
10	0x3e6f0966	0.23343429
11	0xbd6e262d	-0.058141876
12	0x3ec9ee2f	0.39439532
13	0x3e65da26	0.22446498
14	0x3ed7d456	0.42154187
15	0xbdc884c5	-0.09790949
16	0xbefb1131	-0.49036554
17	0x3e27c3da	0.16383305
18	0x3d37d0f4	0.044877008
19	0x3d88ef89	0.06686313
20	0xbd8eba82	-0.06969167
21	0xbe4f8c62	-0.20268396
22	0xbc99d3f1	-0.01877782
23	0xbdb8c30a	-0.09021576
24	0xbedcd51b	-0.43131337
25	0x3e64c514	0.22340804
26	0xbd0f2217	-0.03494462
27	0xbee73d41	-0.4516392
28	0xbe15334e	-0.14570352
29	0x3ddb41c5	0.10705904
30	0x3e8a8799	0.27056578
31	0xbe29b3d5	-0.16572507
32	0x3abdb228	0.001447265
33	0xba339700	-0.0006850809
34	0x3b12a402	0.0022375588
35	0xbb2ac2bc	-0.0026056012
36	0x3aefc484	0.0018292819
37	0xba6b1418	-0.0008967533
38	0x3b2c0eec	0.0026254011
39	0x3b33bd8c	0.002742621
40	0x3aca6e3c	0.0015444229
41	0xba5c3344	-0.0008399973
42	0x3abd53bc	0.001444451
43	0xba8f6f8b	-0.0010943277
44	0x3b0432ea	0.0020171949
45	0xbb0ba78f	-0.002130959
46	0xbb40e9e6	-0.002943629
47	0x3b07b03a	0.0020704404
48	0xba8c2b2b	-0.0010694017
49	0xbb157adf	-0.0022808833
50	0x3a0fc8c8	0.0005484936
51	0x3b37de16	0.0028055958
52	0xba916569	-0.0011092845
53	0xba751e78	-0.00093505485
54	0xba7ea680	-0.00097141415
55	0x3b1de012	0.0024089855
56	0xba60c8d4	-0.00085748476
57	0xbb392f3e	-0.0028256918
58	0x3af44478	0.0018636128
59	0x3b00d054	0.0019655423
60	0x3b0ea2ba	0.0021764473
61	0xbaf03028	-0.0018324899
62	0x3b26ab14	0.002543156
63	0x3aba12b4	0.0014196248
64	0xbff6e687	-1.9289101
65	0xbe30a4ca	-0.17250362
66	0x3f15e53f	0.58552927
67	0xbe06ccb8	-0.13164032
68	0x3f01d072	0.5070869
69	0xbf0d7a44	-0.5526469
70	0xbc307cc9	-0.010771939
71	0x3dc3b106	0.09555249
72	0xbf14aca1	-0.5807591
73	0x3aa1545e	0.0012308469
74	0x3e8762f8	0.26442695
75	0xbdb292b4	-0.08719388
76	0xbda467af	-0.080275886
77	0xbf20848c	-0.6270225
78	0x3da93193	0.08261409
79	0x3e3042b7	0.1721295
80	0xbf13530a	-0.5754858
81	0x3d075798	0.03304252
82	0x3f2e94ca	0.68195784
83	0x3e1a0f7a	0.15044966
84	0x3dbf3d90	0.09337914
85	0xbe0a21f5	-0.13489516
86	0xbce25813	-0.027629888
87	0xbcee903c	-0.02912151
88	0xc01cfc1b	-2.4528873
89	0x3de12d28	0.10994941
90	0xbd65d7b9	-0.056113932
91	0x3c36edbc	0.011165079
92	0x3d15e6fc	0.036597237
93	0xbe54c674	-0.20778829
94	0xbcfdff9f	-0.031005679
95	0x3cf1f4f3	0.029535746
96	0xbf8050cd	-1.0024658
97	0xbd9b5f3a	-0.075865224
98	0xbe58ca1c	-0.21170849
99	0x3dcd6846	0.10029654
100	0xbd0c30d3	-0.03422625
101	0xbf09c61c	-0.53817916
102	0x3f0bd559	0.5462242
103	0x3ea0b76b	0.31389937
104	0xbe6626b6	-0.22475705
105	0xbd20b161	-0.03923166
106	0x3cd3602e	0.025802698
107	0xbe4eb98a	-0.20187965
108	0xbe613533	-0.2199295
109	0x3df1892d	0.11793742
110	0xbdc4f020	-0.09616113
111	0xbd805d7a	-0.06267829
112	0xbf7af1ec	-0.98025393
113	0xbd290d0e	-0.041272216
114	0x3e8aeb1f	0.27132508
115	0x3ea89bb8	0.32931304
116	0x3a9382a6	0.0011254146
117	0xbcb5c029	-0.022186356
118	0xbe5f7487	-0.21821795
119	0xbb2bf67d	-0.0026239448
120	0xbfc175b8	-1.511405
121	0xbcc8e30c	-0.024522327
122	0xbdc2a034	-0.095032126
123	0x3cee48f9	0.02908753
124	0xbf466a8b	-0.7750632
125	0xbe21607f	-0.15759467
126	0xbd12dbef	-0.035854276
127	0xbe1415c8	-0.14461434
128	0x3b03293a	0.0020013587
129	0xbb4d16d5	-0.0031294127
130	0x3adc667c	0.0016815211
131	0x3b0314d0	0.002000142
132	0xba207c4f	-0.0006122039
133	0xbb918173	-0.0044404804
134	0xbb59116c	-0.0033121957
135	0xbae6810a	-0.0017586064
136	0xba30fa3b	-0.00067511544
137	0xba46cae4	-0.00075833336
138	0xbb2c7e61	-0.0026320445
139	0xbb88cc2f	-0.004174731
140	0x39ad3320	0.00033035222
141	0xbb9a6c61	-0.004712627
142	0xbb84c420	-0.0040517002
143	0xbb65bb07	-0.0035054104
144	0xbba4885e	-0.005021139
145	0xbbc57dd9	-0.006026965
146	0xbb8dabb7	-0.0043234485
147	0xbb614e84	-0.0034379074
148	0xbb9ef207	-0.0048506293
149	0xbb9a7c64	-0.0047145355
150	0xbb6d0dd6	-0.0036171577
151	0x3a305cc8	0.00067276927
152	0xbb3b1998	-0.002854919
153	0xbbedca60	-0.007256791
154	0xbb0fbcaa	-0.002193252
155	0xbb62151b	-0.0034497443
156	0xbc06949a	-0.00821414
157	0xb9e64b78	-0.00043925247
158	0xbb25d619	-0.0025304614
159	0xbb05bcf6	-0.002040682
160	0x3b2201cc	0.002472031
161	0x39932cf0	0.00028071506
162	0x3a9e5ea8	0.0012082653
163	0xbbaa4a2c	-0.0051968303
164	0xbb002f55	-0.0019559462
165	0xb8c4b120	-9.3790004e-05
166	0x3b0a4898	0.0021100398
167	0x3a244050	0.0006265687
168	0x3a908ae8	0.0011027725
169	0x3a90b258	0.0011039479
170	0xbac781ef	-0.0015221218
171	0xbbf920f6	-0.007602806
172	0xb990ffa8	-0.000276563
173	0xb9b74db8	-0.00034962385
174	0xbba025df	-0.004887327
175	0xbaf7eb2f	-0.0018914695
176	0x3a88a274	0.0010424391
177	0xbb1e0861	-0.002411388
178	0x3af0eacc	0.0018380522
179	0x3b2727a2	0.00255058
180	0x3900b1f0	0.00012273318
181	0xbb97309b	-0.0046139485
182	0x3a23145c	0.00062209903
183	0xb9c9d278	-0.0003849452
184	0xbc5cb069	-0.013469794
185	0x3b185334	0.0023242952
186	0xb9076d10	-0.00012915232
187	0xb9908098	-0.0002756163
188	0x3a2e8b04	0.0006658288
189	0xbc62a2e9	-0.013832786
190	0xbc036efb	-0.008022065
191	0x3ac64e8c	0.001512961
192	0x3dc099b5	0.09404317
193	0x3dfc1e45	0.12310461
194	0xbd5628d5	-0.052285034
195	0xbd751622	-0.05983556
196	0x3e3aea7f	0.18253516
197	0xbf1eb117	-0.6198897
198	0xbde1e918	-0.11030787
199	0x3df4f50a	0.119608
200	0xbcda8467	-0.026674462
201	0xba046f5c	-0.0005051994
202	0xbedfc299	-0.43703154
203	0xbe93d3ee	-0.28872627
204	0x3df87577	0.1213178
205	0xbd2b21e6	-0.041780375
206	0x3d820771	0.063490756
207	0xbdcf0a1c	-0.1010935
208	0xbf04f882	-0.5194169
209	0xbeb5fb32	-0.3554321
210	0xbe8dc429	-0.2768872
211	0x3c420929	0.011843004
212	0x3ca0e9b2	0.019642685
213	0xbe84c8bb	-0.25934395
214	0xbe1289b9	-0.1431035
215	0xbae4d0a2	-0.0017457197
216	0xbd0c0a6d	-0.03418963
217	0x3d9b0e73	0.07571115
218	0xbe3a1896	-0.18173441
219	0x3c922822	0.017841402
220	0x3c74dd87	0.014945394
221	0xbe8471c2	-0.2586804
222	0x3c7705a2	0.015077027
223	0xbe1f40a0	-0.15551996
224	0xb9a3c6f0	-0.00031238003
225	0xbbd733be	-0.0065674474
226	0xba8831e8	-0.001039085
227	0xba86fcd2	-0.0010298735
228	0xbb226e9f	-0.0024785174
229	0xbc4c7811	-0.012479798
230	0x3b17c0a2	0.002315559
231	0x3a55c740	0.0008154996
232	0x3a2ad470	0.0006516641
233	0xb8d240c0	-0.00010025641
234	0x386e5180	5.6819525e-05
235	0xbc24ef04	-0.010066751
236	0x3a10c484	0.0005522447
237	0x3a731fb8	0.0009274441
238	0xbb48704c	-0.0030584512
239	0xbb33ee98	-0.0027455445
240	0xbc2d8ecd	-0.010593128
241	0xbb9f4c21	-0.00486137
242	0xbb027f82	-0.0019912426
243	0xbb2b0d5b	-0.002610049
244	0xbc255b06	-0.010092502
245	0xbc33c0a4	-0.010971222
246	0x3948d280	0.00019151904
247	0xbb44a463	-0.0030005209
248	0x3a86c450	0.0010281894
249	0xbb9f2f28	-0.0048579164
250	0xbb3ffa3e	-0.0029293443
251	0xbb1b1d80	-0.0023668706
252	0xbbc729e5	-0.0060779923
253	0xbb15c110	-0.002285067
254	0xbb4f1a2c	-0.0031601293
255	0xbb997263	-0.0046828254

fc3.bias f4 [16]
0	0xbf849f2b	-1.0361074
1	0xbe0233a2	-0.12715009
2	0xbec2aada	-0.38020974
3	0x3daffa20	0.085926294
4	0xbdc3388e	-0.09532271
5	0xbd90ab5a	-0.07063933
6	0xbe192829	-0.14956726
7	0xbd21226d	-0.03933947
8	0xbf3699c9	-0.7132841
9	0x3ee78514	0.45218718
10	0x3d534f2c	0.051589176
11	0x3fa7fd1b	1.3124117
12	0xbe26421e	-0.16236159
13	0xbd60ec4b	-0.054912847
14	0xbe5bda08	-0.21469891
15	0xbc5eb1a1	-0.013592155

fc4.weight f4 [1, 16]
0	0x3d4794a7	0.04872575
1	0x3b3cf68e	0.0028833481
2	0xbd33c50a	-0.043889083
3	0x3d10ff79	0.035399888
4	0x39964361	0.0002866043
5	0xba7a74fc	-0.0009554175
6	0x3d1e1e47	0.038603093
7	0xbbfa09af	-0.007630549
8	0xbd2ad3cb	-0.041705888
9	0xbd1859ca	-0.037195005
10	0x3d10e8af	0.035378154
11	0x3e1e84f3	0.15480404
12	0xbb071c61	-0.002061628
13	0x3a1dab71	0.00060146215
14	0x399909f5	0.00029189853
15	0x3b684620	0.0035442188
